issue_number,title,prefix,state,labels,created_at,body,deepseek_v4_flash_output,expected_ok_dsv4,judge_raw_output,ok_reasonable,reasoning_valid,suggestions_valid,judge_reasoning
750,[Feature]: triton.__version__ reports wrong version,[Feature],open,bug,2026-06-24T02:11:26Z,"### Describe the bugWhen I run the following script:```pythonimport tritonprint(""triton:"", triton.__version__)```The output is:```text3.2.0```**Expected: 3.2.1**I've included the environment details for reproduction below. Could you please help confirm? Thanks.### Environment detailsmachine: atlas 800t a2- 910b2- armdocker: ascendai/cann:9.0.0-910b-ubuntu22.04-py3.11- CANN: 9.0.0- ubuntu: 22.04- python: 3.11software requirements- torch: 2.7.1- torch_npu: 2.7.1- triton-ascend: 3.2.1- triton: 3.5.0 (If the platform is arm, triton 3.5.0 is installed; if it's x86, triton 3.2.0 is installed.)","{
    ""ok"": false,
    ""score"": 30,
    ""reasoning"": ""The description is a bug report (version mismatch) submitted under the Feature request template. The required field 'The feature, motivation and pitch' is absent because the description does not propose a new feature or outline any motivation for a feature request. The provided environment details are relevant to a bug, not a feature proposal. Therefore, the description does not meet the specification for a feature request."",
    ""summary"": ""Missing required field for feature proposal; description is a bug report instead."",
    ""missing_items"": [""The feature, motivation and pitch""],
    ""suggestions"": [
        ""If you are reporting a bug, please use the Bug report template instead."",
        ""If this is a feature request, provide a clear description of the feature proposal, your motivation, and the problem it solves.""
    ]
}",false,"{
    ""ok_reasonable"": true,
    ""reasoning_valid"": true,
    ""suggestions_valid"": true,
    ""judge_reasoning"": ""The Review Bot's evaluation is accurate. The description is a bug report incorrectly submitted as a feature request, so ok=false is reasonable. The missing item 'The feature, motivation and pitch' is genuinely absent for a feature proposal. The suggestions are specific, actionable, and avoid 'required'/'must' language. The reasoning clearly explains the mismatch and is self-consistent with the judgment.""
}",true,true,true,"The Review Bot's evaluation is accurate. The description is a bug report incorrectly submitted as a feature request, so ok=false is reasonable. The missing item 'The feature, motivation and pitch' is genuinely absent for a feature proposal. The suggestions are specific, actionable, and avoid 'required'/'must' language. The reasoning clearly explains the mismatch and is self-consistent with the judgment."
733,[Doc]: 文档中缺少在容器内构建、安装Triton-Ascend的完整步骤,[Doc],open,"bug,documentation",2026-06-23T07:01:11Z,### 📚 The doc issuedocs/zh/installation_guide.md文档中的基于Dockerfile安装方式中，缺少Triton-Ascend的构建以及安装的步骤，后续用例无法测试### Suggest a potential alternative/fix_No response_,"{
    ""ok"": true,
    ""score"": 90,
    ""reasoning"": ""The description clearly identifies the specific documentation file (docs/zh/installation_guide.md) and the issue: missing steps for building and installing Triton-Ascend in the Dockerfile installation section. This is sufficient for a documentation issue, as the required field 'The doc issue' is adequately addressed. The description is not vague or empty, meeting the minimum content requirement. No required fields are missing."",
    ""summary"": ""Documentation issue with specific file and clear description of missing content."",
    ""missing_items"": [],
    ""suggestions"": [
        ""Consider adding a direct link to the specific section in the documentation to help maintainers locate the issue faster."",
        ""If possible, describe the exact steps that are missing or the expected behavior after completing the installation.""
    ]
}",true,,error,error,error,parse error: 
690,CI flaky: test_linearize_jump_load_with_mask fails in integration-tests-ascend,[Misc],open,,2026-06-20T08:12:21Z,"## Summary`integration-tests-ascend` is intermittently failing on the existing upstream test:```textthird_party/ascend/unittest/pytest_ut/test_linearize.py::test_linearize_jump_load_with_mask[5-15-dtype0-float32]```This is currently blocking several tutorial-only PRs whose diffs do not touch `third_party/ascend/unittest/pytest_ut/test_linearize.py` or the compiler/runtime code.## Observed failuresRecent PR check failures all report the same test, with different mismatch values/indices across runs:- #686 py3.11: https://github.com/triton-lang/triton-ascend/actions/runs/27863703794/job/82464045572- #687 py3.10: https://github.com/triton-lang/triton-ascend/actions/runs/27863705307/job/82464048341- #688 py3.10: https://github.com/triton-lang/triton-ascend/actions/runs/27863707308/job/82464057135- #688 py3.11: https://github.com/triton-lang/triton-ascend/actions/runs/27863707308/job/82464057142- #689 py3.11: https://github.com/triton-lang/triton-ascend/actions/runs/27863708530/job/82464059056Example failure excerpt:```textAssertionError: Tensor-likes are not close!Mismatched elements: 8 / 75 (10.7%)Greatest absolute difference: 10.63780689239502 at index (1, 0, 13) (up to 0.0001 allowed)Greatest relative difference: 1.0 at index (1, 0, 3) (up to 0.0001 allowed)```Other runs of the same test reported `22 / 75` mismatches and different max-diff locations.## Why this looks unrelated to the tutorial PRsThe failing file is already present on `upstream/main` and appears to have been added by:```text31a5d8ca15c569df62cb87142ea3d037f0a9ef32[driver](fix) Fix get_active_torch_device NameError in Ascend driver (#490)```The affected tutorial PRs only modify their own directories under `third_party/ascend/tutorials/<op>/`.## Suspected failing patternThe failing test calls `save_cache_to_buffer_with_mask` in `test_linearize.py`. The suspicious path is the odd-`pid_loc` branch with masked `tl.load`:```pythonif pid_loc % 2 == 1:    tmp = tl.load(        cache_ptr2 + (2 * BLOCK * cache_index_0 + cache_index_1),        (buffer_index < MASK_NUM) & (buffer_index < mask_int),    )    tl.store(buffer_ptr + index, tmp)```For the failing parameter set `batch_size=5, buffer_len=15`, `pid_loc=1` has `mask_int=2`, so only the first two elements should be valid and the rest should remain zero in the reference path. The CI failure shows mismatches in the tail positions, suggesting a possible issue in masked load/linearization/codegen or a flaky runtime interaction for this pattern.## Local checkUsing a local OpForge environment with CANN 9.0.0, the specific test did not reproduce:```bashASCEND_RT_VISIBLE_DEVICES=7 python -m pytest -q \  'third_party/ascend/unittest/pytest_ut/test_linearize.py::test_linearize_jump_load_with_mask[5-15-dtype0-float32]'```This passed repeatedly locally, while the hosted CI failed in both py3.10 and py3.11 jobs. The hosted CI container uses its own CANN/Python/build environment, so this may be environment or build-artifact sensitive.## RequestCould maintainers please investigate this test or mark it flaky/skip it until stable? It is currently blocking unrelated tutorial-only PRs through the required integration checks.",,,,,,,
661,[Doc]: 官方文档中建议增加具体场景的性能优化方案,[Doc],open,"documentation,performance",2026-06-18T01:54:07Z,### 📚 The doc issuehttps://triton-ascend.readthedocs.io/zh-cn/latest/debug_guide/profiling.html目前官方文档中性能分析方法比较丰富，但缺少分析后问题的优化方案### Suggest a potential alternative/fix建议：参考AscendC整理典型问题的优化方案https://www.hiascend.com/document/detail/zh/CANNCommunityEdition/910beta1/programug/Ascendcopdevg/docs/guide/%E7%AE%97%E5%AD%90%E5%AE%9E%E8%B7%B5%E5%8F%82%E8%80%83/SIMD%E7%AE%97%E5%AD%90%E6%80%A7%E8%83%BD%E4%BC%98%E5%8C%96/%E4%BC%98%E5%8C%96%E5%BB%BA%E8%AE%AE%E6%80%BB%E8%A7%88%E8%A1%A8.md,"{
    ""ok"": true,
    ""score"": 95,
    ""reasoning"": ""The description clearly identifies a specific documentation page (profiling guide), explains the missing content (optimization solutions after analysis), and provides a constructive suggestion with a reference to AscendC documentation. All required fields are adequately addressed, and the content is meaningful and actionable for maintainers."",
    ""summary"": ""Documentation issue clearly described with specific reference and suggestion."",
    ""missing_items"": [],
    ""suggestions"": []
}",true,"{
    ""ok_reasonable"": true,
    ""reasoning_valid"": true,
    ""suggestions_valid"": true,
    ""judge_reasoning"": ""Review Bot's judgment is correct. The description is informative and actionable, so ok=true is reasonable. Reasoning is consistent and self-contained. Missing items correctly identified as empty. No suggestions required.""
}",true,true,true,"Review Bot's judgment is correct. The description is informative and actionable, so ok=true is reasonable. Reasoning is consistent and self-contained. Missing items correctly identified as empty. No suggestions required."
659,[Doc]: 示例算子（矩阵乘法）编译报错，提示缩进异常,[Doc],open,"bug,documentation",2026-06-18T01:42:50Z,"### 📚 The doc issuehttps://triton-ascend.readthedocs.io/zh-cn/latest/examples/05_matrix_multiplication_example.html该示例算子编译报错，提示缩进异常<img width=""441"" height=""56"" alt=""Image"" src=""https://github.com/user-attachments/assets/2948dd60-44a0-4ec1-8670-3cf7b18ead94"" />原因是有一行注释缩进多了一个空格（如下图）<img width=""456"" height=""158"" alt=""Image"" src=""https://github.com/user-attachments/assets/740c6e05-f3d2-4197-8b95-da391bc24552"" />### Suggest a potential alternative/fix建议：修改示例算子的缩进问题，并测试验证","{
    ""ok"": true,
    ""score"": 95,
    ""reasoning"": ""The description clearly identifies a documentation issue: an example matrix multiplication compilation error due to an extra space indentation in a comment. Screenshots provide visual evidence and the specific location. The required field 'The doc issue' is adequately addressed. No required fields are missing, and the description is concise and actionable. Therefore it meets the specification."",
    ""summary"": ""Documentation issue clearly described with screenshots, no missing required fields."",
    ""missing_items"": [],
    ""suggestions"": []
}",true,"{
    ""ok_reasonable"": true,
    ""reasoning_valid"": true,
    ""suggestions_valid"": true,
    ""judge_reasoning"": ""The Review Bot's evaluation is correct: the issue description is clear, informative, and actionable, so ok=true is justified. The reasoning is self-consistent and highlights key strengths. No missing items are present, and suggestions are unnecessary. All audit dimensions pass.""
}",true,true,true,"The Review Bot's evaluation is correct: the issue description is clear, informative, and actionable, so ok=true is justified. The reasoning is self-consistent and highlights key strengths. No missing items are present, and suggestions are unnecessary. All audit dimensions pass."
651,[Feature]: enable autoblockify before ssbuffer pass,[Feature],open,"feature request,ssbuffer",2026-06-17T11:21:38Z,"### 🚀 The feature, motivation and pitch对于一些算子，其计算逻辑本身缺少for循环，于是无法进行ssbuffer的流水排布。但是autoblockify pass会将过大的逻辑线程数量分配到实际物理核上，即会在算子主体计算逻辑之外添加一层for循环，将多个逻辑核线程放在一个物理核线程上计算。因此，ssbuffer可以基于这一层额外的for循环上进行流水排布，但是autoblockify pass在npuir上，而ssbuffer相关pass在TA的最后一层，需要将底层的autoblockify pass迁移到上层来完成。### Alternatives_No response_### Additional context_No response_","{
    ""ok"": true,
    ""score"": 85,
    ""reasoning"": ""The feature request clearly describes the motivation and pitch: it identifies a limitation where operators without for-loops cannot leverage ssbuffer pipelining, and proposes moving the autoblockify pass to an earlier stage to enable it. The required field is adequately filled with a specific technical explanation. Optional fields (Alternatives, Additional context) contain placeholders but are not required. The description is meaningful and sufficient for a maintainer to understand the proposal and begin evaluation."",
    ""summary"": ""Feature proposal is clear, with sufficient motivation and pitch; no required information missing."",
    ""missing_items"": [],
    ""suggestions"": [""Consider mentioning specific operator examples to illustrate the need."", ""If any alternative approaches were considered, briefly note them even if not required.""]
}",true,"{
    ""ok_reasonable"": true,
    ""reasoning_valid"": true,
    ""suggestions_valid"": true,
    ""judge_reasoning"": ""The Review Bot's ok judgment is reasonable because the description provides clear motivation and technical detail. Reasoning is consistent with the score and summary. Suggestions are specific, actionable, and avoid 'must/required' language. No genuinely missing items exist; missing_items empty is correct.""
}",true,true,true,"The Review Bot's ok judgment is reasonable because the description provides clear motivation and technical detail. Reasoning is consistent with the score and summary. Suggestions are specific, actionable, and avoid 'must/required' language. No genuinely missing items exist; missing_items empty is correct."
647,[Feature]: 迭代间能力增强,[Feature],open,"feature request,ssbuffer",2026-06-17T09:10:36Z,"### 🚀 The feature, motivation and pitch对于main_loop的forOp里的计算块间存在tensor类型的iter_args的依赖的情况，可以通过增加该类依赖的控制条件的形式，排SSBUFFER流水。### Alternatives_No response_### Additional context_No response_","{
    ""ok"": true,
    ""score"": 78,
    ""reasoning"": ""The required field 'The feature, motivation and pitch' contains a specific technical proposal, fulfilling the minimum content requirement. Although the description is concise and lacks an explicit statement of motivation, the problem and suggested solution are clearly indicated. Optional fields are absent but not required. The information is sufficient for a maintainer to understand the feature direction."",
    ""summary"": ""Feature request with sufficient content in required field."",
    ""missing_items"": [],
    ""suggestions"": [""Consider providing more context on the motivation, such as a use case or scenario where this enhancement improves performance or usability.""]
}",true,"{
    ""ok_reasonable"": true,
    ""reasoning_valid"": true,
    ""suggestions_valid"": true,
    ""judge_reasoning"": ""The Review Bot's evaluation is correct. The description contains a specific technical proposal in the required field, making ok=true reasonable. The reasoning is self-consistent, acknowledging the missing motivation but still deeming the content sufficient for maintainers. The suggestion uses 'consider' and is specific and actionable, avoiding required/must language. missing_items is empty appropriately, as the optional fields with 'No response' are not mandatory. Overall, the audit confirms the Review Bot's output is valid.""
}",true,true,true,"The Review Bot's evaluation is correct. The description contains a specific technical proposal in the required field, making ok=true reasonable. The reasoning is self-consistent, acknowledging the missing motivation but still deeming the content sufficient for maintainers. The suggestion uses 'consider' and is specific and actionable, avoiding required/must language. missing_items is empty appropriately, as the optional fields with 'No response' are not mandatory. Overall, the audit confirms the Review Bot's output is valid."
633,[Misc]:  autotune 中 BLOCK_SIZE=2048 的 config 未被选中/被剪枝，缺乏可见性,[Misc],open,"performance,misc,autotune",2026-06-17T03:18:20Z,"### Anything you want to discuss about triton on ascend.背景我在进行的 autotune 实践时，基于 autotune.py 样例代码（size=98432，原始 get_autotune_config() 返回  BLOCK_SIZE=16/256/512 三个 config），新增了 triton.Config({'BLOCK_SIZE': 1024}) 和 triton.Config({'BLOCK_SIZE': 2048}) 两个配置。运行环境为 Ascend  910B，Triton-ascend 镜像版本 swr.cn-north-4.myhuaweicloud.com/hw-ascend/triton:3.2.1-910b-openeuler24.03-py3.11-arm64，torch-npu 2.7.1，已设置  TRITON_PRINT_AUTOTUNING=1。  复现步骤  # autotune.py 中修改 get_autotune_config()  def get_autotune_config():      return [          triton.Config({'BLOCK_SIZE': 16}),          triton.Config({'BLOCK_SIZE': 256}),          triton.Config({'BLOCK_SIZE': 512}),          triton.Config({'BLOCK_SIZE': 1024}), # ← 加了这行          triton.Config({'BLOCK_SIZE': 2048}),   # ← 加了这行      ]  # 启用 autotune 调试输出  export TRITON_PRINT_AUTOTUNING=1  # 运行  python3 autotune.py  实际现象  - BLOCK_SIZE=16, 256, 512, 1024 四个 config 均被 benchmark 并参与比较  - BLOCK_SIZE=1024 最终被选中  - BLOCK_SIZE=2048 完全没有出现在 autotune 输出中 — 既没有被 benchmark，也没有被报告为失败/跳过  预期行为  BLOCK_SIZE=2048 应该至少被尝试 benchmark，然后根据性能数据决定是否选中。如果被剪枝，应有日志说明原因。","{
    ""ok"": true,
    ""score"": 95,
    ""reasoning"": ""The submitted description is detailed and clearly discusses an autotune issue with triton on Ascend, including environment information (Ascend hardware, Triton-ascend image version, torch-npu version), reproduction steps, and observed/expected behavior. It fulfills the only explicitly required field of discussing triton on Ascend, and exceeds the minimum content threshold with substantial meaningful content. No required information is missing; the description is well-formed and actionable."",
    ""summary"": ""Compliant: detailed discussion of triton autotune issue with environment and steps."",
    ""missing_items"": [],
    ""suggestions"": []
}",true,"{
    ""ok_reasonable"": true,
    ""reasoning_valid"": true,
    ""suggestions_valid"": true,
    ""judge_reasoning"": ""The Review Bot's evaluation is accurate. The issue description is detailed and actionable, containing environment, reproduction steps, and expected behavior. The ok=true judgment is reasonable. The reasoning is self-consistent and correctly identifies the content quality. The missing_items list is empty as all essential information is present. No suggestions are needed, so suggestions_valid holds.""
}",true,true,true,"The Review Bot's evaluation is accurate. The issue description is detailed and actionable, containing environment, reproduction steps, and expected behavior. The ok=true judgment is reasonable. The reasoning is self-consistent and correctly identifies the content quality. The missing_items list is empty as all essential information is present. No suggestions are needed, so suggestions_valid holds."
605,TopK精度问题,[Misc],open,"bug,performance",2026-06-16T02:03:07Z,### Describe the bughttps://github.com/triton-lang/triton-ascend/pull/532 pr532已修复此问题，持续关注合入情况### Environment detailshttps://github.com/triton-lang/triton-ascend/pull/532 pr532已修复此问题，持续关注合入情况,,,,,,,
558,triton-ascend autotune [] 报错No valid triton configs. NoneType: None,[Misc],open,bug,2026-06-12T08:19:37Z,"### Describe the bugimport torchimport tritonimport triton.language as tlimport triton.language.extra.cann.extension as extensionimport triton.backends.ascend.runtimeDEVICE = (    ""cuda""    if torch.cuda.is_available()    else ""npu""    if torch.npu.is_available()    else ""cpu"")@triton.jitdef addmm_kernel_no_autotune(    y_ptr,    x1_ptr,    x2_ptr,    bias_ptr,    M: tl.constexpr,    N: tl.constexpr,    K: tl.constexpr,    alpha,    beta,    stride_x1_m,    stride_x1_k,    stride_x2_k,    stride_x2_n,    stride_y_m,    stride_y_n,    stride_bias_m,    stride_bias_n,    BLOCK_M: tl.constexpr,    BLOCK_N: tl.constexpr,    BLOCK_K: tl.constexpr,):    total_pid = tl.num_programs(0)    current_pid = tl.program_id(0)    total_m_blocks = tl.cdiv(M, BLOCK_M)    total_n_blocks = tl.cdiv(N, BLOCK_N)    # process BLOCK_M * N    for pid_m in range(current_pid, total_m_blocks, total_pid):        m_indices = pid_m * BLOCK_M + tl.arange(0, BLOCK_M)        mask_m = m_indices < M        acc = tl.zeros((BLOCK_M, N), dtype=tl.float32)        # K block loop        for k in range(0, K, BLOCK_K):            k_indices = k + tl.arange(0, BLOCK_K)            mask_k = k_indices < K            # load X1[BLOCK_M, BLOCK_K]            x1 = tl.load(                x1_ptr                + m_indices[:, None] * stride_x1_m                + k_indices[None, :] * stride_x1_k,                mask=mask_m[:, None] & mask_k[None, :],                other=0.0,            )            # N block loop, reuse x1            for pid_n in range(total_n_blocks):                n_start = pid_n * BLOCK_N                n_indices = n_start + tl.arange(0, BLOCK_N)                mask_n = n_indices < N                x2 = tl.load(                    x2_ptr                    + k_indices[:, None] * stride_x2_k                    + n_indices[None, :] * stride_x2_n,                    mask=mask_k[:, None] & mask_n[None, :],                    other=0.0,                )                d = tl.dot(x1, x2)                acc_n = extension.extract_slice(                    acc, (0, n_start), (BLOCK_M, BLOCK_N), (1, 1)                )                acc_n = acc_n + d                acc = extension.insert_slice(                    acc, acc_n, (0, n_start), (BLOCK_M, BLOCK_N), (1, 1)                )        # store result        for pid_n in range(total_n_blocks):            n_start = pid_n * BLOCK_N            n_indices = n_start + tl.arange(0, BLOCK_N)            mask_n = n_indices < N            mask_out = mask_m[:, None] & mask_n[None, :]            y_block = extension.extract_slice(                acc, (0, n_start), (BLOCK_M, BLOCK_N), (1, 1)            )            bias = tl.load(                bias_ptr                + m_indices[:, None] * stride_bias_m                + n_indices[None, :] * stride_bias_n,                mask=mask_out,                other=0.0,            )            y = alpha * y_block + beta * bias            acc = extension.insert_slice(                acc, y, (0, n_start), (BLOCK_M, BLOCK_N), (1, 1)            )        tl.store(            y_ptr            + m_indices[:, None] * stride_y_m            + tl.arange(0, N)[None, :] * stride_y_n,            acc,            mask=mask_m[:, None],        )@triton.autotune(    configs=[],    key=[""M"", ""N"", ""K""],)@triton.jitdef addmm_kernel_autotune(    y_ptr,    x1_ptr,    x2_ptr,    bias_ptr,    M,    N,    K,    alpha,    beta,    stride_x1_m,    stride_x1_k,    stride_x2_k,    stride_x2_n,    stride_y_m,    stride_y_n,    stride_bias_m,    stride_bias_n,    BLOCK_M: tl.constexpr,    BLOCK_N: tl.constexpr,    BLOCK_K: tl.constexpr,):    total_pid = tl.num_programs(0)  # AI Core number    current_pid = tl.program_id(0)  # core ID    # M & N dim split to (m_block, n_block)    total_m_blocks = tl.cdiv(M, BLOCK_M)    total_n_blocks = tl.cdiv(N, BLOCK_N)    total_output_blocks = total_m_blocks * total_n_blocks    for block_idx in range(current_pid, total_output_blocks, total_pid):        # block_idx convert to 2D (pid_m, pid_n)        pid_m = block_idx // total_n_blocks        pid_n = block_idx % total_n_blocks        offs_m = pid_m * BLOCK_M + tl.arange(0, BLOCK_M)        offs_n = pid_n * BLOCK_N + tl.arange(0, BLOCK_N)        offs_k = tl.arange(0, BLOCK_K)        mask_m = offs_m < M        mask_n = offs_n < N        mask_out = mask_m[:, None] & mask_n[None, :]        acc = tl.zeros((BLOCK_M, BLOCK_N), dtype=tl.float32)        # K block loop        for k in range(0, K, BLOCK_K):            current_k = k + offs_k            mask_k = current_k < K            # load x1 block [BLOCK_M, BLOCK_K]            x1 = tl.load(                x1_ptr                + offs_m[:, None] * stride_x1_m                + current_k[None, :] * stride_x1_k,                mask=mask_m[:, None] & mask_k[None, :],                other=0.0,            )            # load x2 block [BLOCK_K, BLOCK_N]            x2 = tl.load(                x2_ptr                + current_k[:, None] * stride_x2_k                + offs_n[None, :] * stride_x2_n,                mask=mask_k[:, None] & mask_n[None, :],                other=0.0,            )            acc += tl.dot(x1, x2)        bias = tl.load(            bias_ptr            + offs_m[:, None] * stride_bias_m            + offs_n[None, :] * stride_bias_n,            mask=mask_out,            other=0.0,        )        y = alpha * acc + beta * bias        tl.store(            y_ptr + offs_m[:, None] * stride_y_m + offs_n[None, :] * stride_y_n,            y,            mask=mask_out,        )def triton_addmm(    x1: torch.Tensor,    x2: torch.Tensor,    bias: torch.Tensor,    alpha: float = 1.0,    beta: float = 1.0,    BLOCK_M=None,    BLOCK_N=None,    BLOCK_K=None,) -> torch.Tensor:    x1 = x1.to(DEVICE)    x2 = x2.to(DEVICE)    bias = bias.to(DEVICE)    if x1.dim() != 2 or x2.dim() != 2 or bias.dim() != 2:        raise ValueError(""x1, x2, bias 必须是2维张量"")    M, K = x1.shape    K2, N = x2.shape    if K != K2:        raise ValueError(f""x1的K={K}与x2的K={K2}不匹配"")    if bias.shape != (M, N):        raise ValueError(f""bias shape 必须为 ({M}, {N})"")    y = torch.empty((M, N), device=x1.device, dtype=x1.dtype)    if DEVICE == ""npu"":        import triton.runtime.driver as driver        device = torch.npu.current_device()        aicore_num = driver.active.utils.get_device_properties(device)[""num_aicore""]        grid = lambda meta: (            M_num := triton.cdiv(M, meta[""BLOCK_M""]),            N_num := triton.cdiv(                N,                meta[""BLOCK_N""],            ),            (N_num, M_num) if M_num * N_num < aicore_num / 2 else (aicore_num,),        )[-1]    else:        grid = lambda meta: (            triton.cdiv(N, meta[""BLOCK_N""], triton.cdiv(M, meta[""BLOCK_M""]))        )    USE_AUTOTUNE = BLOCK_M is None or BLOCK_N is None or BLOCK_K is None    if USE_AUTOTUNE:        addmm_kernel_autotune[grid](            y_ptr=y,            x1_ptr=x1,            x2_ptr=x2,            bias_ptr=bias,            M=M,            N=N,            K=K,            alpha=alpha,            beta=beta,            stride_x1_m=x1.stride(0),            stride_x1_k=x1.stride(1),            stride_x2_k=x2.stride(0),            stride_x2_n=x2.stride(1),            stride_y_m=y.stride(0),            stride_y_n=y.stride(1),            stride_bias_m=bias.stride(0),            stride_bias_n=bias.stride(1),        )    else:        addmm_kernel_no_autotune[grid](            y_ptr=y,            x1_ptr=x1,            x2_ptr=x2,            bias_ptr=bias,            M=M,            N=N,            K=K,            alpha=alpha,            beta=beta,            stride_x1_m=x1.stride(0),            stride_x1_k=x1.stride(1),            stride_x2_k=x2.stride(0),            stride_x2_n=x2.stride(1),            stride_y_m=y.stride(0),            stride_y_n=y.stride(1),            stride_bias_m=bias.stride(0),            stride_bias_n=bias.stride(1),            BLOCK_M=BLOCK_M,            BLOCK_N=BLOCK_N,            BLOCK_K=BLOCK_K,        )    return y测试代码：import itertoolsimport sysimport timefrom datetime import datetime, timezone, timedeltafrom pathlib import Pathimport torchimport tritonimport pytestROOT = Path(__file__).parent.parentsys.path.insert(0, str(ROOT))from kernel.addmm import triton_addmm as triton_addmm_orgfrom kernel.addmm_opt import triton_addmm as triton_addmmfrom kernel.addmm_opt import addmm_kernel_autotuneDEVICE = (    ""cuda""    if torch.cuda.is_available()    else ""npu""    if torch.npu.is_available()    else ""cpu"")# ====================== 测试配置 ======================M_LIST = [1, 15, 495]N_LIST = [1, 160, 5333]K_LIST = [63, 96, 196, 1024, 1536]SCALARS = {    torch.float32: [        [0.001, -0.999],        [-0.999, 1.001],        [100.001, -1.001],        [-100.999, 1.001],    ],    torch.float16: [[0.001, -0.999], [-0.999, 1.001]],    torch.float8_e4m3fn: [[0.001, -0.999], [-0.999, 1.001]],    torch.float8_e5m2: [[0.001, -0.999], [-0.999, 1.001]],}DTYPES = [torch.float32, torch.float16, torch.float8_e4m3fn, torch.float8_e5m2]SEEDS = [3]# 精度标准RTOL = {    torch.float32: 1e-5,    torch.float16: 1e-3,    torch.float8_e4m3fn: 1e-3,    torch.float8_e5m2: 1e-3,}ATOL = {    torch.float32: 1e-5,    torch.float16: 1e-3,    torch.float8_e4m3fn: 1e-3,    torch.float8_e5m2: 1e-3,}# 性能测试标准PERFORMANCE_THRESHOLD = 0.9  # 0.9 * AscendCWARMUP = 0ITER = 1def torch_addmm(    x1: torch.Tensor, x2: torch.Tensor, bias: torch.Tensor, alpha: float, beta: float):    """"""torch 实现""""""    return torch.addmm(bias, x1, x2, beta=beta, alpha=alpha)def run_example(    M: int,    N: int,    K: int,    alpha: float,    beta: float,    DTYPE: torch.dtype,    seed: int = 123,):    torch.manual_seed(seed)    # 构造数据    x1 = torch.randn(M, K, dtype=torch.float32).to(DTYPE)    x2 = torch.randn(K, N, dtype=torch.float32).to(DTYPE)    bias = torch.randn(M, N, dtype=torch.float32).to(DTYPE)    # 运行    y_torch = torch_addmm(x1, x2, bias, alpha, beta).to(torch.float32)    y_triton = triton_addmm(x1, x2, bias, alpha, beta).cpu().to(torch.float32)    # 校验    ok = torch.allclose(y_triton, y_torch, rtol=RTOL[DTYPE], atol=ATOL[DTYPE])    max_err = torch.max(torch.abs(y_triton - y_torch)).item()    print(        f""📌 M={M:4d} N={N:4d} K={K:4d} | dtype={DTYPE} | alpha={alpha:.4f} beta={beta:.4f}""    )    print(f""   精度：{'✅ PASS' if ok else '❌ FAIL'} | 最大误差: {max_err:.6f}\n"")# ====================== 函数3：pytest 精度测试 ======================test_cases = []for dtype in DTYPES:    # 每个 dtype 取自己对应的 scalar list    scalars = SCALARS[dtype]    # 组合：M × N × K × dtype × scalar    cases_for_dtype = list(        itertools.product(M_LIST, N_LIST, K_LIST, scalars, [dtype], SEEDS)    )    test_cases.extend(cases_for_dtype)@pytest.mark.parametrize(""M, N, K, scalar, DTYPE, SEED"", test_cases)def test_accuracy_triton_addmm(M, N, K, scalar, DTYPE, SEED):    alpha = scalar[0]    beta = scalar[1]    run_example(M, N, K, alpha, beta, DTYPE, SEED)configs = []for m, n, k in [[495, 5333, 1536], [64, 512, 128], [16, 64, 24]]:    for block_m, block_n in [        [32, 32],        [64, 64],        [128, 128],        [192, 192],        [32, 64],        [64, 128],        [128, 192],    ]:        configs.append(            triton.testing.Benchmark(                # argument names to use as an x-axis for the plot                x_names=[                    ""BLOCK_K"",                ],                x_vals=[                    32,                    64,                    96,                    128,                    256,                    512,                ],  # different possible values for `x_name`                line_arg=""provider"",                # argument name whose value corresponds to a different line in the plot                # possible values for `line_arg``                line_vals=[""torch"", ""triton""],                # label name for the lines                line_names=[""torch"", ""triton""],                # line styles                styles=[(""green"", ""-""), (""blue"", ""-"")],                ylabel=""runtime(ms)"",  # label name for the y-axis                plot_name=f""addmm-performance-{m}-{n}-{k}-{block_m}-{block_n}"",                # name for the plot. Used also as a file name for saving the plot.                args={                    ""M"": m,                    ""N"": n,                    ""K"": k,                    ""BLOCK_M"": block_m,                    ""BLOCK_N"": block_n,                },            )        )def benchmark_perf(M, N, K, BLOCK_M, BLOCK_N, BLOCK_K, provider):    DTYPE = torch.float16    alpha, beta = 1.218, 1.0  # 1.0会调用matmul, 非1.0会调用vector的muls    x1 = torch.randn(M, K, dtype=DTYPE).to(DEVICE)    x2 = torch.randn(K, N, dtype=DTYPE).to(DEVICE)    bias = torch.randn(M, N, dtype=DTYPE).to(DEVICE)    USE_AUTOTUNE = BLOCK_M == 0 or BLOCK_N == 0 or BLOCK_K == 0    if provider == ""torch"":        ms = triton.testing.do_bench(lambda: torch_addmm(x1, x2, bias, alpha, beta))    if provider == ""triton"":        if USE_AUTOTUNE:            ms = triton.testing.do_bench(                lambda: triton_addmm(x1, x2, bias, alpha, beta)            )        else:            ms = triton.testing.do_bench(                lambda: triton_addmm(                    x1, x2, bias, alpha, beta, BLOCK_M, BLOCK_N, BLOCK_K                )            )    return ms@triton.testing.perf_report(configs)def do_bench_perf(M, N, K, BLOCK_M, BLOCK_N, BLOCK_K, provider):    return benchmark_perf(M, N, K, BLOCK_M, BLOCK_N, BLOCK_K, provider)def run_perf_testcase(caseId, perfMod, BLOCK_M, BLOCK_N, BLOCK_K):    """"""性能测试函数""""""    """"""caseId: 0: large, 1: middle, 2: small""""""    """"""perfMode: bit0: run triton, bit1: run torch """"""    assert (        caseId == 0 or caseId == 1 or caseId == 2    ), ""Error input caseId={}, expect in [0, 1, 2]"".format(caseId)    # 性能测试使用最大矩阵，最能体现性能    MKN_LIST = [[495, 5333, 1536], [64, 512, 128], [16, 64, 24]]    M, K, N = MKN_LIST[caseId]  # caseId: 0: large, 1: middle, 2: small    DTYPE = torch.float16    print(""\n"" + ""="" * 60)    print("" Triton Addmm 性能测试 caseId={} M={} N={} K={}"".format(caseId, M, N, K))    print(""="" * 60)    """"""perfMode: bit0: run triton, bit1: run torch""""""    # 构造输入    x1 = torch.randn(M, K, dtype=DTYPE).to(DEVICE)    x2 = torch.randn(K, N, dtype=DTYPE).to(DEVICE)    bias = torch.randn(M, N, dtype=DTYPE).to(DEVICE)    # 测速    t_torch = (        benchmark_perf(M, N, K, BLOCK_M, BLOCK_N, BLOCK_K, ""torch"")        if perfMod > 1        else 0    )    t_triton = (        benchmark_perf(M, N, K, BLOCK_M, BLOCK_N, BLOCK_K, ""triton"")        if perfMod % 2        else 1e-12    )    # 性能倍率    ratio = t_torch / t_triton    meet_standard = ratio >= PERFORMANCE_THRESHOLD    # 输出    print(        f""[矩阵尺寸] M={M}, N={N}, K={K}, BLOCK_M={BLOCK_M}, BLOCK_N={BLOCK_N}, BLOCK_K={BLOCK_K}""    )    print(f""[数据类型] {dtype}"")    print(f""[PyTorch]  平均耗时: {t_torch:>.3f} ms"")    print(f""[Triton]   平均耗时: {t_triton:>.3f} ms"")    print(f""[性能倍率] {ratio:.3f}x"")    print(f""[达标 0.9×AscendC] : {'✅ 满足' if meet_standard else '❌ 不满足'}"")    print(""="" * 60 + ""\n"")if __name__ == ""__main__"":    print(        ""======== start time={} ========"".format(            datetime.now(timezone(timedelta(hours=8)))        )    )    # 不输入参数, do_bench跑指定切块的性能    if len(sys.argv) == 1:        do_bench_perf.run(show_plots=True, print_data=True, save_path=""."")    # 运行精度用例    if len(sys.argv) == 2:        isRunAccu = len(sys.argv) == 2 and sys.argv[1] != 0        if isRunAccu:            for M, N, K, scalar, DTYPE, SEED in test_cases:                alpha = scalar[0]                beta = scalar[1]                run_example(M, N, K, alpha, beta, DTYPE, SEED)    # 运行autotune    if len(sys.argv) == 4:        M = int(sys.argv[1])        N = int(sys.argv[2])        K = int(sys.argv[3])        ts = benchmark_perf(M, N, K, 0, 0, 0, ""triton"")        # ==========================        # 🔥 打印最终选择 + 性能        # ==========================        best_conf = addmm_kernel_autotune.best_config        best_time = addmm_kernel_autotune.bench_time        tflops = 2 * M * N * K / (best_time * 1e-3) / 1e12        print(""\n=================================================="")        print(""           🚀 AUTO TUNE 最终结果                 "")        print(""=================================================="")        print(f""Shape: M={M}, N={N}, K={K}"")        print(f""BLOCK_M    = {best_conf.kwargs['BLOCK_M']}"")        print(f""BLOCK_N    = {best_conf.kwargs['BLOCK_N']}"")        print(f""BLOCK_K    = {best_conf.kwargs['BLOCK_K']}"")        print(f""num_warps  = {best_conf.num_warps}"")        print(f""num_stages = {best_conf.num_stages}"")        print(f""Best time  = {best_time:.4f} ms"")        print(f""TFLOPS     = {tflops:.4f}"")        print(""==================================================\n"")    # 指定BLOCK_M, BLOCK_N, BLOCK_K,运行性能测试和Profiling    if len(sys.argv) == 6:        caseId = int(sys.argv[1]) if len(sys.argv) >= 2 else 0        perfMod = int(sys.argv[2]) if len(sys.argv) >= 3 else 3        BLOCK_M = int(sys.argv[3]) if len(sys.argv) >= 4 else 128        BLOCK_N = int(sys.argv[4]) if len(sys.argv) >= 5 else 128        BLOCK_K = int(sys.argv[5]) if len(sys.argv) >= 6 else 128        run_perf_testcase(caseId, perfMod, BLOCK_M, BLOCK_N, BLOCK_K)    print(        ""======== end time={} ========"".format(            datetime.now(timezone(timedelta(hours=8)))        )    )测试命令：python test/test_addmm.py 595 1024 5900报错信息：======== start time=2026-06-12 15:54:04.125720+08:00 ========Traceback (most recent call last):  File ""/home/workspace/triton-ascend-kernels/competitions/06_practices/2026/addmm/tests/test_addmm.py"", line 273, in <module>    ts = benchmark_perf(M, N, K, 0, 0, 0, ""triton"")         ^^^^^^^^^^^^^^^^^^^^^^^^^^^^^^^^^^^^^^^^^^  File ""/home/workspace/triton-ascend-kernels/competitions/06_practices/2026/addmm/tests/test_addmm.py"", line 179, in benchmark_perf    ms = triton.testing.do_bench(         ^^^^^^^^^^^^^^^^^^^^^^^^  File ""/opt/buildtools/python-3.12.9/lib/python3.12/site-packages/triton/testing.py"", line 117, in do_bench    fn()  File ""/home/workspace/triton-ascend-kernels/competitions/06_practices/2026/addmm/tests/test_addmm.py"", line 180, in <lambda>    lambda: triton_addmm(x1, x2, bias, alpha, beta)            ^^^^^^^^^^^^^^^^^^^^^^^^^^^^^^^^^^^^^^^  File ""/home/workspace/triton-ascend-kernels/competitions/06_practices/2026/addmm/kernel/addmm_opt.py"", line 261, in triton_addmm    addmm_kernel_autotune[grid](  File ""/opt/buildtools/python-3.12.9/lib/python3.12/site-packages/triton/runtime/jit.py"", line 333, in <lambda>    return lambda *args, **kwargs: self.run(grid=grid, warmup=False, *args, **kwargs)                                   ^^^^^^^^^^^^^^^^^^^^^^^^^^^^^^^^^^^^^^^^^^^^^^^^^^  File ""/opt/buildtools/python-3.12.9/lib/python3.12/site-packages/triton/backends/ascend/runtime/autotuner.py"", line 2247, in run    timings = self._batch_bench(*args, configs=pruned_configs, **kwargs)              ^^^^^^^^^^^^^^^^^^^^^^^^^^^^^^^^^^^^^^^^^^^^^^^^^^^^^^^^^^  File ""/opt/buildtools/python-3.12.9/lib/python3.12/site-packages/triton/backends/ascend/runtime/autotuner.py"", line 2357, in _batch_bench    raise RuntimeError(f""No valid triton configs. {type(exc).__name__}: {exc} \nStack trace: {exc_stack}"")RuntimeError: No valid triton configs. NoneType: NoneStack trace:[ERROR] 2026-06-12-15:54:05 (PID:119328, Device:0, RankID:-1) ERR99999 UNKNOWN applicaiton exception### Environment detailstriton3.2.2950PRcann9.0.0",,,,,,,
536,[Misc]: triton的fa算子性能问题,[Misc],open,misc,2026-06-11T09:21:20Z,### Anything you want to discuss about triton on ascend.使用benchmark测试，seqlen 2k-16k，fa算子的性能与pytorch差距太大，不到50%，希望至少能到80%的性能，这方面是怎么规划的，有没有计划表,"{
    ""ok"": true,
    ""score"": 85,
    ""reasoning"": ""The description provides a clear statement about a performance issue with the FA operator on Ascend using Triton, including benchmark results (seqlen 2k-16k, <50% of PyTorch performance) and an inquiry about planning. The required field 'Anything you want to discuss about triton on ascend' is adequately addressed. The body is not empty, has meaningful content beyond vague phrases, and meets the minimum content requirement. Although environment details (e.g., CANN version, hardware model) are not included, the specification only mandates a discussion field, and the information is sufficient for initial investigation and discussion. Score reflects overall usability with minor suggestions for improvement."",
    ""summary"": ""Description meets specification for a discussion, clear and actionable."",
    ""missing_items"": [],
    ""suggestions"": [
        ""Consider providing the CANN version, hardware model (e.g., A3, A5), and Triton version for better context."",
        ""If available, share a minimal reproducible script to help developers reproduce the performance gap.""
    ]
}",true,"{
    ""ok_reasonable"": true,
    ""reasoning_valid"": true,
    ""suggestions_valid"": true,
    ""judge_reasoning"": ""The Review Bot's evaluation is correct. The ok=true judgment is reasonable as the description meets the minimum content requirement for a discussion. The reasoning is self-consistent and acknowledges missing optional details while still deeming it sufficient. The suggestions are polite, specific, and actionable. missing_items is accurate because no required items are missing.""
}",true,true,true,"The Review Bot's evaluation is correct. The ok=true judgment is reasonable as the description meets the minimum content requirement for a discussion. The reasoning is self-consistent and acknowledges missing optional details while still deeming it sufficient. The suggestions are polite, specific, and actionable. missing_items is accurate because no required items are missing."
491,啥时候能发布3.2.1到pypi源：https://pypi.org/project/triton-ascend,[Misc],open,bug,2026-06-09T07:44:46Z,### Describe the bug预计啥时候能发布3.2.1到pypi源：https://pypi.org/project/triton-ascend，需要3.2.1的whl包，否则，无法做依赖扫描### Environment details预计啥时候能发布3.2.1到pypi源：https://pypi.org/project/triton-ascend，需要3.2.1的whl包，否则，无法做依赖扫描,,,,,,,
473,[ssbuffer] allocmulticache pass fails to attach “ssbuffer.crossdeps” attribute on cross-core data dependency,[ssbuffer],open,bug,2026-06-08T07:36:38Z,"### Describe the bugfla中的算子nsa_bwd_kernel_dq和nsa_bwd_kernel_dkv在ssbuffer场景下，kernel中存在核间数据依赖，但是在allocmulticache pass处理后未能正确打上标签，导致后续pass出现不合理场景报错```C[AddControlFlowCondition] before AddControlFlowCondition:module attributes {hacc.target = #hacc.target<""Ascend950PR_9579"">} {  func.func @parallel_nsa_bwd_kernel_dkv(%arg0: memref<?xi8>, %arg1: memref<?xi8>, %arg2: memref<?xf32> {tt.divisibility = 16 : i32, tt.tensor_kind = 0 : i32}, %arg3: memref<?xf32> {tt.divisibility = 16 : i32, tt.tensor_kind = 0 : i32}, %arg4: memref<?xf32> {tt.divisibility = 16 : i32, tt.tensor_kind = 0 : i32}, %arg5: memref<?xf32> {tt.divisibility = 16 : i32, tt.tensor_kind = 0 : i32}, %arg6: memref<?xf32> {tt.divisibility = 16 : i32, tt.tensor_kind = 0 : i32}, %arg7: memref<?xf32> {tt.divisibility = 16 : i32, tt.tensor_kind = 0 : i32}, %arg8: memref<?xf32> {tt.divisibility = 16 : i32, tt.tensor_kind = 1 : i32}, %arg9: memref<?xf32> {tt.divisibility = 16 : i32, tt.tensor_kind = 1 : i32}, %arg10: memref<?xi8> {tt.divisibility = 16 : i32, tt.tensor_kind = 0 : i32}, %arg11: f32, %arg12: i32, %arg13: i32, %arg14: i32, %arg15: i32, %arg16: i32, %arg17: i32, %arg18: i32) attributes {SyncBlockLockArgIdx = 0 : i64, WorkspaceArgIdx = 1 : i64, global_kernel = ""local"", mix_mode = ""mix"", parallel_mode = ""simd""} {    %cst = arith.constant {ssbuffer.block_id = 19 : i32} 0.000000e+00 : f32    %c16_i32 = arith.constant {ssbuffer.block_id = 19 : i32} 16 : i32    %c0_i8 = arith.constant {Undefined, ssbuffer.block_id = 19 : i32} 0 : i8    %c8_i32 = arith.constant {ssbuffer.block_id = 19 : i32} 8 : i32    %c0_i32 = arith.constant {ssbuffer.block_id = 19 : i32} 0 : i32    %c64_i32 = arith.constant {MixUse, ssbuffer.block_id = 19 : i32} 64 : i32    %c4_i32 = arith.constant {ssbuffer.block_id = 19 : i32} 4 : i32    %c1_i32 = arith.constant {Undefined, ssbuffer.block_id = 19 : i32} 1 : i32    %c32_i32 = arith.constant {ssbuffer.block_id = 19 : i32} 32 : i32    %c4096_i32 = arith.constant {ssbuffer.block_id = 19 : i32} 4096 : i32    %c0 = arith.constant {ssbuffer.block_id = 19 : i32} 0 : index    %c64 = arith.constant {ssbuffer.block_id = 19 : i32} 64 : index    %c16 = arith.constant {ssbuffer.block_id = 19 : i32} 16 : index    %cst_0 = arith.constant {ssbuffer.block_id = 14 : i32} dense<[8, 1, 16, 8]> : tensor<4xi64>    %cst_1 = arith.constant {ssbuffer.block_id = 14 : i32} dense<[16, 8, 8]> : tensor<3xi64>    %cst_2 = arith.constant {ssbuffer.block_id = 15 : i32} dense<[2, 4, 16, 8]> : tensor<4xi64>    %cst_3 = arith.constant {ssbuffer.block_id = 15 : i32} dense<[64, 2, 8]> : tensor<3xi64>    %c256 = arith.constant {ssbuffer.block_id = 20 : i32} 256 : index    scope.scope : () -> () {      %0 = tensor.empty() {ssbuffer.block_id = 19 : i32} : tensor<64x16xf32>      %1 = linalg.fill {ssbuffer.block_id = 19 : i32} ins(%cst : f32) outs(%0 : tensor<64x16xf32>) -> tensor<64x16xf32>      %2 = tensor.empty() {ssbuffer.block_id = 19 : i32} : tensor<64x64xf32>      %3 = linalg.fill {ssbuffer.block_id = 19 : i32} ins(%cst : f32) outs(%2 : tensor<64x64xf32>) -> tensor<64x64xf32>      %4 = arith.divsi %arg18, %c4_i32 {ssbuffer.block_id = 19 : i32} : i32      %5 = arith.remsi %arg18, %c4_i32 {ssbuffer.block_id = 19 : i32} : i32      %6 = arith.muli %4, %arg12 {ssbuffer.block_id = 19 : i32} : i32      %7 = arith.muli %arg17, %c64_i32 {MixUse, ssbuffer.block_id = 19 : i32} : i32      %8 = arith.muli %5, %c8_i32 {ssbuffer.block_id = 19 : i32} : i32      %alloc = memref.alloc() {ssbuffer.block_id = 22 : i32, ssbuffer.transfer_id = 0 : i32} : memref<2x4x16x8xf32, #hivm.address_space<cbuf>>      annotation.mark %alloc {effects = [""write"", ""read""], hivm.tightly_coupled_buffer = #hivm.tightly_coupled_buffer<0>, ssbuffer.block_id = 22 : i32, ssbuffer.transfer_id = 0 : i32} : memref<2x4x16x8xf32, #hivm.address_space<cbuf>>      %alloc_4 = memref.alloc() {ssbuffer.block_id = 22 : i32, ssbuffer.transfer_id = 1 : i32} : memref<8x1x16x8xf32, #hivm.address_space<cbuf>>      annotation.mark %alloc_4 {effects = [""write"", ""read""], hivm.tightly_coupled_buffer = #hivm.tightly_coupled_buffer<1>, ssbuffer.block_id = 22 : i32, ssbuffer.transfer_id = 1 : i32} : memref<8x1x16x8xf32, #hivm.address_space<cbuf>>      %alloc_5 = memref.alloc() {ssbuffer.block_id = 22 : i32, ssbuffer.transfer_id = 2 : i32} : memref<8x1x16x8xf32, #hivm.address_space<cbuf>>      annotation.mark %alloc_5 {effects = [""write"", ""read""], hivm.tightly_coupled_buffer = #hivm.tightly_coupled_buffer<2>, ssbuffer.block_id = 22 : i32, ssbuffer.transfer_id = 2 : i32} : memref<8x1x16x8xf32, #hivm.address_space<cbuf>>      %alloc_6 = memref.alloc() {ssbuffer.block_id = 22 : i32, ssbuffer.transfer_id = 3 : i32} : memref<2x4x16x8xf32, #hivm.address_space<cbuf>>      annotation.mark %alloc_6 {effects = [""write"", ""read""], hivm.tightly_coupled_buffer = #hivm.tightly_coupled_buffer<3>, ssbuffer.block_id = 22 : i32, ssbuffer.transfer_id = 3 : i32} : memref<2x4x16x8xf32, #hivm.address_space<cbuf>>      %alloc_7 = memref.alloc() {ssbuffer.block_id = 22 : i32, ssbuffer.transfer_id = 4 : i32} : memref<64x64xf32, #hivm.address_space<ub>>      annotation.mark %alloc_7 {effects = [""write"", ""read""], hivm.tightly_coupled_buffer = #hivm.tightly_coupled_buffer<4>, ssbuffer.block_id = 22 : i32, ssbuffer.transfer_id = 4 : i32} : memref<64x64xf32, #hivm.address_space<ub>>      hivm.hir.sync_block_set {ssbuffer.analyze_flag_id, ssbuffer.block_id = 22 : i32, ssbuffer.transfer_id = 4 : i32}[<VECTOR>, <PIPE_V>, <PIPE_FIX>] flag = 5      %alloc_8 = memref.alloc() {ssbuffer.block_id = 22 : i32, ssbuffer.transfer_id = 5 : i32} : memref<64x16xf32, #hivm.address_space<ub>>      annotation.mark %alloc_8 {effects = [""write"", ""read""], hivm.tightly_coupled_buffer = #hivm.tightly_coupled_buffer<5>, ssbuffer.block_id = 22 : i32, ssbuffer.transfer_id = 5 : i32} : memref<64x16xf32, #hivm.address_space<ub>>      hivm.hir.sync_block_set {ssbuffer.analyze_flag_id, ssbuffer.block_id = 22 : i32, ssbuffer.transfer_id = 5 : i32}[<VECTOR>, <PIPE_V>, <PIPE_FIX>] flag = 6      %alloc_9 = memref.alloc() {ssbuffer.block_id = 22 : i32, ssbuffer.transfer_id = 6 : i32} : memref<64x16xf32, #hivm.address_space<ub>>      annotation.mark %alloc_9 {effects = [""write"", ""read""], hivm.tightly_coupled_buffer = #hivm.tightly_coupled_buffer<6>, ssbuffer.block_id = 22 : i32, ssbuffer.transfer_id = 6 : i32} : memref<64x16xf32, #hivm.address_space<ub>>      hivm.hir.sync_block_set {ssbuffer.analyze_flag_id, ssbuffer.block_id = 22 : i32, ssbuffer.transfer_id = 6 : i32}[<VECTOR>, <PIPE_V>, <PIPE_FIX>] flag = 7      %alloc_10 = memref.alloc() {ssbuffer.block_id = 22 : i32, ssbuffer.transfer_id = 7 : i32} : memref<64x64xf32, #hivm.address_space<ub>>      annotation.mark %alloc_10 {effects = [""write"", ""read""], hivm.tightly_coupled_buffer = #hivm.tightly_coupled_buffer<7>, ssbuffer.block_id = 22 : i32, ssbuffer.transfer_id = 7 : i32} : memref<64x64xf32, #hivm.address_space<ub>>      hivm.hir.sync_block_set {ssbuffer.analyze_flag_id, ssbuffer.block_id = 22 : i32, ssbuffer.transfer_id = 7 : i32}[<VECTOR>, <PIPE_V>, <PIPE_FIX>] flag = 8      %alloc_11 = memref.alloc() : memref<64x16xf32, #hivm.address_space<ub>>      %memspacecast = memref.memory_space_cast %alloc_11 {ssbuffer.intraDeps = [0 : i32, 1 : i32]} : memref<64x16xf32, #hivm.address_space<ub>> to memref<64x16xf32>      %alloc_12 = memref.alloc() : memref<64x16xf32, #hivm.address_space<ub>>      %memspacecast_13 = memref.memory_space_cast %alloc_12 {ssbuffer.intraDeps = [0 : i32, 1 : i32]} : memref<64x16xf32, #hivm.address_space<ub>> to memref<64x16xf32>      %9:2 = scf.for %arg19 = %7 to %arg12 step %c1_i32 iter_args(%arg20 = %3, %arg21 = %3) -> (tensor<64x64xf32>, tensor<64x64xf32>)  : i32 {        %61 = arith.addi %6, %arg19 {ssbuffer.block_id = 18 : i32, ssbuffer.dep_mark = [1 : i32, 3 : i32]} : i32        %62 = arith.muli %61, %c32_i32 {ssbuffer.block_id = 18 : i32} : i32        %63 = arith.index_cast %62 {ssbuffer.block_id = 18 : i32} : i32 to index        %64 = arith.index_cast %8 {ssbuffer.block_id = 18 : i32} : i32 to index        %65 = arith.addi %63, %64 {ssbuffer.block_id = 18 : i32} : index        %66 = arith.index_cast %arg17 {ssbuffer.block_id = 18 : i32} : i32 to index        %67 = arith.addi %65, %66 {ssbuffer.block_id = 18 : i32} : index        %reinterpret_cast_17 = memref.reinterpret_cast %arg10 to offset: [%67], sizes: [1], strides: [1] {ssbuffer.block_id = 18 : i32} : memref<?xi8> to memref<1xi8, strided<[1], offset: ?>>        %68 = memref.load %reinterpret_cast_17[%c0] {ssbuffer.block_id = 18 : i32, was_bool_to_int8 = true} : memref<1xi8, strided<[1], offset: ?>>        %69 = arith.cmpi ne, %68, %c0_i8 {Undefined, ssbuffer.block_id = 18 : i32, ssbuffer.dep_mark = [2 : i32]} : i8        %70:2 = scf.if %69 -> (tensor<64x64xf32>, tensor<64x64xf32>) {          %71 = arith.muli %5, %c16_i32 {ssbuffer.block_id = 14 : i32} : i32          %72 = arith.maxsi %71, %c0_i32 {ssbuffer.block_id = 14 : i32} : i32          %73 = arith.index_cast %72 {ssbuffer.block_id = 14 : i32} : i32 to index          %74 = arith.muli %73, %c64 {ssbuffer.block_id = 14 : i32} : index          %alloc_18 = memref.alloc() {ssbuffer.block_id = 14 : i32} : memref<16x64xf32>          %75 = arith.divsi %74, %c64 {ssbuffer.block_id = 14 : i32} : index          %76 = arith.subi %c64, %75 {ssbuffer.block_id = 14 : i32} : index          %77 = arith.maxsi %76, %c0 {ssbuffer.block_id = 14 : i32} : index          %78 = arith.minsi %77, %c16 {ssbuffer.block_id = 14 : i32} : index          %79 = arith.remsi %74, %c64 {ssbuffer.block_id = 14 : i32} : index          %80 = arith.subi %c64, %79 {ssbuffer.block_id = 14 : i32} : index          %81 = arith.maxsi %80, %c0 {ssbuffer.block_id = 14 : i32} : index          %82 = arith.minsi %81, %c64 {ssbuffer.block_id = 14 : i32} : index          %83 = arith.subi %c0_i32, %71 {ssbuffer.block_id = 14 : i32} : i32          %84 = arith.maxsi %83, %c0_i32 {ssbuffer.block_id = 14 : i32} : i32          %85 = arith.index_cast %84 {ssbuffer.block_id = 14 : i32} : i32 to index          %86 = arith.minsi %85, %78 {ssbuffer.block_id = 14 : i32} : index          %87 = arith.subi %78, %86 {ssbuffer.block_id = 14 : i32} : index          %88 = arith.minsi %82, %c0 {ssbuffer.block_id = 14 : i32} : index          %89 = arith.subi %82, %88 {ssbuffer.block_id = 14 : i32} : index          %90 = arith.cmpi slt, %87, %c16 {ssbuffer.block_id = 14 : i32} : index          %91 = arith.cmpi slt, %89, %c64 {ssbuffer.block_id = 14 : i32} : index          %92 = arith.ori %90, %91 {ssbuffer.block_id = 14 : i32} : i1          scf.if %92 {            linalg.fill {ssbuffer.block_id = 14 : i32} ins(%cst : f32) outs(%alloc_18 : memref<16x64xf32>)          } {hivm.unlikely_condition, ssbuffer.block_id = 14 : i32}          %93 = arith.muli %61, %c4096_i32 {ssbuffer.block_id = 14 : i32, ssbuffer.dep_mark = [1 : i32, 3 : i32]} : i32          %94 = arith.index_cast %93 {ssbuffer.block_id = 14 : i32} : i32 to index          %95 = arith.addi %74, %94 {ssbuffer.block_id = 14 : i32} : index          %reinterpret_cast_19 = memref.reinterpret_cast %arg2 to offset: [%95], sizes: [16, 64], strides: [64, 1] {ssbuffer.block_id = 14 : i32} : memref<?xf32> to memref<16x64xf32, strided<[64, 1], offset: ?>>          %subview_20 = memref.subview %reinterpret_cast_19[0, 0] [%87, %89] [1, 1] {ssbuffer.block_id = 14 : i32} : memref<16x64xf32, strided<[64, 1], offset: ?>> to memref<?x?xf32, strided<[64, 1], offset: ?>>          %subview_21 = memref.subview %alloc_18[%86, %88] [%87, %89] [1, 1] {ssbuffer.block_id = 14 : i32} : memref<16x64xf32> to memref<?x?xf32, strided<[64, 1], offset: ?>>          memref.copy %subview_20, %subview_21 {ssbuffer.block_id = 14 : i32} : memref<?x?xf32, strided<[64, 1], offset: ?>> to memref<?x?xf32, strided<[64, 1], offset: ?>>          %96 = bufferization.to_tensor %alloc_18 restrict writable {ssbuffer.block_id = 14 : i32} : memref<16x64xf32>          %97 = tensor.empty() {ssbuffer.block_id = 14 : i32} : tensor<16x64xf32>          %98 = linalg.fill {ssbuffer.block_id = 14 : i32} ins(%arg11 : f32) outs(%97 : tensor<16x64xf32>) -> tensor<16x64xf32>          %99 = arith.mulf %96, %98 {DataUse, ssbuffer.block_id = 14 : i32} : tensor<16x64xf32>          %reshape = tensor.reshape %99(%cst_1) {ssbuffer.block_id = 14 : i32} : (tensor<16x64xf32>, tensor<3xi64>) -> tensor<16x8x8xf32>          %100 = tensor.empty() {ssbuffer.block_id = 14 : i32} : tensor<8x16x8xf32>          %transposed = linalg.transpose ins(%reshape : tensor<16x8x8xf32>) outs(%100 : tensor<8x16x8xf32>) permutation = [1, 0, 2]  {ssbuffer.block_id = 14 : i32}          %reshape_22 = tensor.reshape %transposed(%cst_0) {ssbuffer.block_id = 14 : i32} : (tensor<8x16x8xf32>, tensor<4xi64>) -> tensor<8x1x16x8xf32>          hivm.hir.sync_block_wait {ssbuffer.analyze_flag_id, ssbuffer.block_id = 14 : i32, ssbuffer.transfer_id = 1 : i32}[<VECTOR>, <PIPE_M>, <PIPE_MTE3>] flag = 2          hivm.hir.copy ins(%reshape_22 : tensor<8x1x16x8xf32>) outs(%alloc_4 : memref<8x1x16x8xf32, #hivm.address_space<cbuf>>) {ssbuffer.block_id = 14 : i32, ssbuffer.transfer_id = 1 : i32}          hivm.hir.sync_block_set {ssbuffer.analyze_flag_id, ssbuffer.block_id = 14 : i32, ssbuffer.transfer_id = 1 : i32}[<VECTOR>, <PIPE_MTE3>, <PIPE_MTE1>] flag = 2          hivm.hir.sync_block_wait {ssbuffer.analyze_flag_id, ssbuffer.block_id = 14 : i32, ssbuffer.transfer_id = 2 : i32}[<VECTOR>, <PIPE_M>, <PIPE_MTE3>] flag = 3          hivm.hir.copy ins(%reshape_22 : tensor<8x1x16x8xf32>) outs(%alloc_5 : memref<8x1x16x8xf32, #hivm.address_space<cbuf>>) {ssbuffer.block_id = 14 : i32, ssbuffer.transfer_id = 2 : i32}          hivm.hir.sync_block_set {ssbuffer.analyze_flag_id, ssbuffer.block_id = 14 : i32, ssbuffer.transfer_id = 2 : i32}[<VECTOR>, <PIPE_MTE3>, <PIPE_MTE1>] flag = 3          hivm.hir.sync_block_wait {ssbuffer.analyze_flag_id, ssbuffer.block_id = 15 : i32, ssbuffer.transfer_id = 5 : i32}[<VECTOR>, <PIPE_FIX>, <PIPE_V>] flag = 6          %memspacecast_23 = memref.memory_space_cast %alloc_8 {ssbuffer.block_id = 15 : i32, ssbuffer.transfer_id = 5 : i32} : memref<64x16xf32, #hivm.address_space<ub>> to memref<64x16xf32>          %101 = bufferization.to_tensor %memspacecast_23 restrict writable {ssbuffer.block_id = 15 : i32, ssbuffer.transfer_id = 5 : i32} : memref<64x16xf32>          %102 = arith.muli %61, %c64_i32 {ssbuffer.block_id = 15 : i32, ssbuffer.dep_mark = [1 : i32, 3 : i32]} : i32          %103 = arith.index_cast %102 {ssbuffer.block_id = 15 : i32} : i32 to index          %104 = arith.index_cast %71 {ssbuffer.block_id = 15 : i32} : i32 to index          %105 = arith.addi %103, %104 {ssbuffer.block_id = 15 : i32} : index          %reinterpret_cast_24 = memref.reinterpret_cast %arg5 to offset: [%105], sizes: [16], strides: [1] {ssbuffer.block_id = 15 : i32} : memref<?xf32> to memref<16xf32, strided<[1], offset: ?>>          %alloc_25 = memref.alloc() {ssbuffer.block_id = 15 : i32} : memref<16xf32>          memref.copy %reinterpret_cast_24, %alloc_25 {ssbuffer.block_id = 15 : i32} : memref<16xf32, strided<[1], offset: ?>> to memref<16xf32>          %106 = bufferization.to_tensor %alloc_25 restrict writable {ssbuffer.block_id = 15 : i32} : memref<16xf32>          %broadcasted = linalg.broadcast ins(%106 : tensor<16xf32>) outs(%0 : tensor<64x16xf32>) dimensions = [0]  {ssbuffer.block_id = 15 : i32}          %107 = arith.subf %101, %broadcasted {DataUse, ssbuffer.block_id = 15 : i32} : tensor<64x16xf32>          %108 = math.exp %107 {DataUse, ssbuffer.block_id = 15 : i32} : tensor<64x16xf32>          %109 = tensor.empty() {ssbuffer.block_id = 15 : i32} : tensor<64xi32>          %110 = linalg.generic {indexing_maps = [affine_map<(d0) -> (d0)>], iterator_types = [""parallel""]} outs(%109 : tensor<64xi32>) attrs =  {ssbuffer.block_id = 15 : i32, tt.from_make_range, tt.make_range_offset = 0 : index, tt.make_range_size = 64 : index} {          ^bb0(%out: i32):            %127 = linalg.index 0 : index            %128 = arith.index_cast %127 : index to i32            linalg.yield %128 : i32          } -> tensor<64xi32>          %111 = linalg.fill {ssbuffer.block_id = 15 : i32} ins(%7 : i32) outs(%109 : tensor<64xi32>) -> tensor<64xi32>          %112 = arith.addi %111, %110 {DataUse, ssbuffer.block_id = 15 : i32} : tensor<64xi32>          %113 = linalg.fill {ssbuffer.block_id = 15 : i32} ins(%arg19 : i32) outs(%109 : tensor<64xi32>) -> tensor<64xi32>          %114 = arith.cmpi sge, %113, %112 {DataUse, ssbuffer.block_id = 15 : i32} : tensor<64xi32>          %115 = tensor.empty() {ssbuffer.block_id = 15 : i32} : tensor<64x16xi1>          %broadcasted_26 = linalg.broadcast ins(%114 : tensor<64xi1>) outs(%115 : tensor<64x16xi1>) dimensions = [1]  {ssbuffer.block_id = 15 : i32}          %116 = arith.select %broadcasted_26, %108, %1 {DataUse, ssbuffer.block_id = 15 : i32} : tensor<64x16xi1>, tensor<64x16xf32>          %reshape_27 = tensor.reshape %116(%cst_3) {ssbuffer.block_id = 15 : i32} : (tensor<64x16xf32>, tensor<3xi64>) -> tensor<64x2x8xf32>          %117 = tensor.empty() {ssbuffer.block_id = 15 : i32} : tensor<2x64x8xf32>          %transposed_28 = linalg.transpose ins(%reshape_27 : tensor<64x2x8xf32>) outs(%117 : tensor<2x64x8xf32>) permutation = [1, 0, 2]  {ssbuffer.block_id = 15 : i32}          %reshape_29 = tensor.reshape %transposed_28(%cst_2) {ssbuffer.block_id = 15 : i32} : (tensor<2x64x8xf32>, tensor<4xi64>) -> tensor<2x4x16x8xf32>          hivm.hir.sync_block_wait {ssbuffer.analyze_flag_id, ssbuffer.block_id = 15 : i32, ssbuffer.transfer_id = 3 : i32}[<VECTOR>, <PIPE_M>, <PIPE_MTE3>] flag = 4          hivm.hir.copy ins(%reshape_29 : tensor<2x4x16x8xf32>) outs(%alloc_6 : memref<2x4x16x8xf32, #hivm.address_space<cbuf>>) {ssbuffer.block_id = 15 : i32, ssbuffer.transfer_id = 3 : i32}          hivm.hir.sync_block_set {ssbuffer.analyze_flag_id, ssbuffer.block_id = 15 : i32, ssbuffer.transfer_id = 3 : i32}[<VECTOR>, <PIPE_MTE3>, <PIPE_MTE1>] flag = 4          hivm.hir.sync_block_set {ssbuffer.analyze_flag_id, ssbuffer.block_id = 15 : i32, ssbuffer.transfer_id = 5 : i32}[<VECTOR>, <PIPE_V>, <PIPE_FIX>] flag = 6          hivm.hir.sync_block_wait {ssbuffer.analyze_flag_id, ssbuffer.block_id = 16 : i32, ssbuffer.transfer_id = 6 : i32}[<VECTOR>, <PIPE_FIX>, <PIPE_V>] flag = 7          %memspacecast_30 = memref.memory_space_cast %alloc_9 {ssbuffer.block_id = 16 : i32, ssbuffer.transfer_id = 6 : i32} : memref<64x16xf32, #hivm.address_space<ub>> to memref<64x16xf32>          %118 = bufferization.to_tensor %memspacecast_30 restrict writable {ssbuffer.block_id = 16 : i32, ssbuffer.transfer_id = 6 : i32} : memref<64x16xf32>          %reinterpret_cast_31 = memref.reinterpret_cast %arg6 to offset: [%105], sizes: [16], strides: [1] {ssbuffer.block_id = 16 : i32} : memref<?xf32> to memref<16xf32, strided<[1], offset: ?>>          %alloc_32 = memref.alloc() {ssbuffer.block_id = 16 : i32} : memref<16xf32>          memref.copy %reinterpret_cast_31, %alloc_32 {ssbuffer.block_id = 16 : i32} : memref<16xf32, strided<[1], offset: ?>> to memref<16xf32>          %119 = bufferization.to_tensor %alloc_32 restrict writable {ssbuffer.block_id = 16 : i32} : memref<16xf32>          %broadcasted_33 = linalg.broadcast ins(%119 : tensor<16xf32>) outs(%0 : tensor<64x16xf32>) dimensions = [0]  {ssbuffer.block_id = 16 : i32}          %120 = arith.subf %118, %broadcasted_33 {DataUse, ssbuffer.block_id = 16 : i32} : tensor<64x16xf32>          %121 = arith.mulf %116, %120 {DataUse, ssbuffer.block_id = 16 : i32} : tensor<64x16xf32>          %reshape_34 = tensor.reshape %121(%cst_3) {ssbuffer.block_id = 16 : i32} : (tensor<64x16xf32>, tensor<3xi64>) -> tensor<64x2x8xf32>          %122 = tensor.empty() {ssbuffer.block_id = 16 : i32} : tensor<2x64x8xf32>          %transposed_35 = linalg.transpose ins(%reshape_34 : tensor<64x2x8xf32>) outs(%122 : tensor<2x64x8xf32>) permutation = [1, 0, 2]  {ssbuffer.block_id = 16 : i32}          %reshape_36 = tensor.reshape %transposed_35(%cst_2) {ssbuffer.block_id = 16 : i32} : (tensor<2x64x8xf32>, tensor<4xi64>) -> tensor<2x4x16x8xf32>          hivm.hir.sync_block_wait {ssbuffer.analyze_flag_id, ssbuffer.block_id = 16 : i32, ssbuffer.transfer_id = 0 : i32}[<VECTOR>, <PIPE_M>, <PIPE_MTE3>] flag = 1          hivm.hir.copy ins(%reshape_36 : tensor<2x4x16x8xf32>) outs(%alloc : memref<2x4x16x8xf32, #hivm.address_space<cbuf>>) {ssbuffer.block_id = 16 : i32, ssbuffer.transfer_id = 0 : i32}          hivm.hir.sync_block_set {ssbuffer.analyze_flag_id, ssbuffer.block_id = 16 : i32, ssbuffer.transfer_id = 0 : i32}[<VECTOR>, <PIPE_MTE3>, <PIPE_MTE1>] flag = 1          hivm.hir.sync_block_set {ssbuffer.analyze_flag_id, ssbuffer.block_id = 16 : i32, ssbuffer.transfer_id = 6 : i32}[<VECTOR>, <PIPE_V>, <PIPE_FIX>] flag = 7          hivm.hir.sync_block_wait {ssbuffer.analyze_flag_id, ssbuffer.block_id = 17 : i32, ssbuffer.transfer_id = 7 : i32}[<VECTOR>, <PIPE_FIX>, <PIPE_V>] flag = 8          %memspacecast_37 = memref.memory_space_cast %alloc_10 {ssbuffer.block_id = 17 : i32, ssbuffer.transfer_id = 7 : i32} : memref<64x64xf32, #hivm.address_space<ub>> to memref<64x64xf32>          %123 = bufferization.to_tensor %memspacecast_37 restrict writable {ssbuffer.block_id = 17 : i32, ssbuffer.transfer_id = 7 : i32} : memref<64x64xf32>          hivm.hir.sync_block_wait {ssbuffer.analyze_flag_id, ssbuffer.block_id = 17 : i32, ssbuffer.transfer_id = 4 : i32}[<VECTOR>, <PIPE_FIX>, <PIPE_V>] flag = 5          %memspacecast_38 = memref.memory_space_cast %alloc_7 {ssbuffer.block_id = 17 : i32, ssbuffer.transfer_id = 4 : i32} : memref<64x64xf32, #hivm.address_space<ub>> to memref<64x64xf32>          %124 = bufferization.to_tensor %memspacecast_38 restrict writable {ssbuffer.block_id = 17 : i32, ssbuffer.transfer_id = 4 : i32} : memref<64x64xf32>          %125 = arith.addf %123, %arg21 {ssbuffer.add_from_matmul, ssbuffer.block_id = 17 : i32} : tensor<64x64xf32>          %126 = arith.addf %124, %arg20 {ssbuffer.add_from_matmul, ssbuffer.block_id = 17 : i32} : tensor<64x64xf32>          hivm.hir.sync_block_set {ssbuffer.analyze_flag_id, ssbuffer.block_id = 17 : i32, ssbuffer.transfer_id = 4 : i32}[<VECTOR>, <PIPE_V>, <PIPE_FIX>] flag = 5          hivm.hir.sync_block_set {ssbuffer.analyze_flag_id, ssbuffer.block_id = 17 : i32, ssbuffer.transfer_id = 7 : i32}[<VECTOR>, <PIPE_V>, <PIPE_FIX>] flag = 8          scf.yield {Undefined} %126, %125 : tensor<64x64xf32>, tensor<64x64xf32>        } else {          scf.yield {Undefined} %arg20, %arg21 : tensor<64x64xf32>, tensor<64x64xf32>        } {DataUse, ssbuffer.block_id = 21 : i32, ssbuffer.dep_mark = [2 : i32, 2 : i32]}        scf.yield %70#0, %70#1 : tensor<64x64xf32>, tensor<64x64xf32>      } {DataUse, ssbuffer.block_id = 22 : i32, ssbuffer.main_loop = 0 : i32}      hivm.hir.sync_block_wait {ssbuffer.analyze_flag_id, ssbuffer.block_id = 22 : i32, ssbuffer.transfer_id = 3 : i32}[<VECTOR>, <PIPE_M>, <PIPE_MTE3>] flag = 4      hivm.hir.sync_block_wait {ssbuffer.analyze_flag_id, ssbuffer.block_id = 22 : i32, ssbuffer.transfer_id = 2 : i32}[<VECTOR>, <PIPE_M>, <PIPE_MTE3>] flag = 3      hivm.hir.sync_block_wait {ssbuffer.analyze_flag_id, ssbuffer.block_id = 22 : i32, ssbuffer.transfer_id = 1 : i32}[<VECTOR>, <PIPE_M>, <PIPE_MTE3>] flag = 2      hivm.hir.sync_block_wait {ssbuffer.analyze_flag_id, ssbuffer.block_id = 22 : i32, ssbuffer.transfer_id = 0 : i32}[<VECTOR>, <PIPE_M>, <PIPE_MTE3>] flag = 1      %10 = arith.muli %6, %c4_i32 {ssbuffer.block_id = 20 : i32} : i32      %11 = arith.addi %10, %5 {ssbuffer.block_id = 20 : i32} : i32      %12 = arith.muli %11, %c64_i32 {ssbuffer.block_id = 20 : i32} : i32      %13 = arith.index_cast %12 {ssbuffer.block_id = 20 : i32} : i32 to index      %14 = arith.maxsi %7, %c0_i32 {ssbuffer.block_id = 20 : i32} : i32      %15 = arith.index_cast %14 {ssbuffer.block_id = 20 : i32} : i32 to index      %16 = arith.muli %15, %c256 {ssbuffer.block_id = 20 : i32} : index      %17 = arith.addi %16, %13 {ssbuffer.block_id = 20 : i32} : index      %18 = arith.index_cast %arg12 {ssbuffer.block_id = 20 : i32} : i32 to index      %19 = arith.muli %arg16, %c64_i32 {ssbuffer.block_id = 20 : i32} : i32      %20 = arith.maxsi %19, %c0_i32 {ssbuffer.block_id = 20 : i32} : i32      %21 = arith.index_cast %20 {ssbuffer.block_id = 20 : i32} : i32 to index      %22 = arith.addi %17, %21 {ssbuffer.block_id = 20 : i32} : index      %23 = arith.muli %arg16, %arg12 {ssbuffer.block_id = 20 : i32} : i32      %24 = arith.muli %23, %c4_i32 {ssbuffer.block_id = 20 : i32} : i32      %25 = arith.addi %24, %10 {ssbuffer.block_id = 20 : i32} : i32      %26 = arith.addi %25, %5 {ssbuffer.block_id = 20 : i32} : i32      %27 = arith.muli %26, %c64_i32 {ssbuffer.block_id = 20 : i32} : i32      %28 = arith.index_cast %27 {ssbuffer.block_id = 20 : i32} : i32 to index      %29 = arith.addi %16, %28 {ssbuffer.block_id = 20 : i32} : index      %reinterpret_cast = memref.reinterpret_cast %arg8 to offset: [%29], sizes: [64, 64], strides: [256, 1] {ssbuffer.block_id = 20 : i32} : memref<?xf32> to memref<64x64xf32, strided<[256, 1], offset: ?>>      %reinterpret_cast_14 = memref.reinterpret_cast %arg9 to offset: [%22], sizes: [64, 64], strides: [256, 1] {ssbuffer.block_id = 20 : i32} : memref<?xf32> to memref<64x64xf32, strided<[256, 1], offset: ?>>      %30 = arith.divsi %16, %c256 {ssbuffer.block_id = 20 : i32} : index      %31 = arith.subi %18, %30 {ssbuffer.block_id = 20 : i32} : index      %32 = arith.maxsi %31, %c0 {ssbuffer.block_id = 20 : i32} : index      %33 = arith.minsi %32, %c64 {ssbuffer.block_id = 20 : i32} : index      %34 = arith.remsi %16, %c256 {ssbuffer.block_id = 20 : i32} : index      %35 = arith.subi %c64, %34 {ssbuffer.block_id = 20 : i32} : index      %36 = arith.maxsi %35, %c0 {ssbuffer.block_id = 20 : i32} : index      %37 = arith.minsi %36, %c64 {ssbuffer.block_id = 20 : i32} : index      %38 = arith.subi %c0_i32, %7 {ssbuffer.block_id = 20 : i32} : i32      %39 = arith.maxsi %38, %c0_i32 {ssbuffer.block_id = 20 : i32} : i32      %40 = arith.index_cast %39 {ssbuffer.block_id = 20 : i32} : i32 to index      %41 = arith.minsi %40, %33 {ssbuffer.block_id = 20 : i32} : index      %42 = arith.subi %33, %41 {ssbuffer.block_id = 20 : i32} : index      %43 = arith.minsi %37, %c0 {ssbuffer.block_id = 20 : i32} : index      %44 = arith.subi %37, %43 {ssbuffer.block_id = 20 : i32} : index      %45 = arith.subi %22, %13 {ssbuffer.block_id = 20 : i32} : index      %46 = arith.divsi %45, %c256 {ssbuffer.block_id = 20 : i32} : index      %47 = arith.subi %18, %46 {ssbuffer.block_id = 20 : i32} : index      %48 = arith.maxsi %47, %c0 {ssbuffer.block_id = 20 : i32} : index      %49 = arith.minsi %48, %c64 {ssbuffer.block_id = 20 : i32} : index      %50 = arith.remsi %45, %c256 {ssbuffer.block_id = 20 : i32} : index      %51 = arith.subi %c64, %50 {ssbuffer.block_id = 20 : i32} : index      %52 = arith.maxsi %51, %c0 {ssbuffer.block_id = 20 : i32} : index      %53 = arith.minsi %52, %c64 {ssbuffer.block_id = 20 : i32} : index      %54 = arith.minsi %40, %49 {ssbuffer.block_id = 20 : i32} : index      %55 = arith.subi %49, %54 {ssbuffer.block_id = 20 : i32} : index      %56 = arith.subi %c0_i32, %19 {ssbuffer.block_id = 20 : i32} : i32      %57 = arith.maxsi %56, %c0_i32 {ssbuffer.block_id = 20 : i32} : i32      %58 = arith.index_cast %57 {ssbuffer.block_id = 20 : i32} : i32 to index      %59 = arith.minsi %58, %53 {ssbuffer.block_id = 20 : i32} : index      %60 = arith.subi %53, %59 {ssbuffer.block_id = 20 : i32} : index      %extracted_slice = tensor.extract_slice %9#0[%41, %43] [%42, %44] [1, 1] {ssbuffer.block_id = 20 : i32} : tensor<64x64xf32> to tensor<?x?xf32>      %subview = memref.subview %reinterpret_cast[0, 0] [%42, %44] [1, 1] {ssbuffer.block_id = 20 : i32} : memref<64x64xf32, strided<[256, 1], offset: ?>> to memref<?x?xf32, strided<[256, 1], offset: ?>>      bufferization.materialize_in_destination %extracted_slice in writable %subview {ssbuffer.block_id = 20 : i32} : (tensor<?x?xf32>, memref<?x?xf32, strided<[256, 1], offset: ?>>) -> ()      %extracted_slice_15 = tensor.extract_slice %9#1[%54, %59] [%55, %60] [1, 1] {ssbuffer.block_id = 20 : i32} : tensor<64x64xf32> to tensor<?x?xf32>      %subview_16 = memref.subview %reinterpret_cast_14[0, 0] [%55, %60] [1, 1] {ssbuffer.block_id = 20 : i32} : memref<64x64xf32, strided<[256, 1], offset: ?>> to memref<?x?xf32, strided<[256, 1], offset: ?>>      bufferization.materialize_in_destination %extracted_slice_15 in writable %subview_16 {ssbuffer.block_id = 20 : i32} : (tensor<?x?xf32>, memref<?x?xf32, strided<[256, 1], offset: ?>>) -> ()      scope.return    } {hivm.tcore_type = #hivm.tcore_type<VECTOR>}    scope.scope : () -> () {      %0 = arith.divsi %arg18, %c4_i32 {ssbuffer.block_id = 19 : i32} : i32      %1 = arith.remsi %arg18, %c4_i32 {ssbuffer.block_id = 19 : i32} : i32      %2 = arith.muli %0, %arg12 {ssbuffer.block_id = 19 : i32} : i32      %3 = arith.muli %arg17, %c64_i32 {MixUse, ssbuffer.block_id = 19 : i32} : i32      %4 = arith.muli %1, %c8_i32 {ssbuffer.block_id = 19 : i32} : i32      %5 = tensor.empty() {ssbuffer.block_id = 10 : i32} : tensor<64x16xf32>      %6 = linalg.fill {ssbuffer.block_id = 10 : i32} ins(%cst : f32) outs(%5 : tensor<64x16xf32>) -> tensor<64x16xf32>      %7 = arith.divsi %arg18, %c4_i32 {ssbuffer.block_id = 10 : i32} : i32      %8 = arith.remsi %arg18, %c4_i32 {ssbuffer.block_id = 10 : i32} : i32      %9 = arith.muli %7, %arg12 {ssbuffer.block_id = 10 : i32} : i32      %10 = arith.muli %9, %c4_i32 {ssbuffer.block_id = 10 : i32} : i32      %11 = arith.addi %10, %8 {ssbuffer.block_id = 10 : i32} : i32      %12 = arith.muli %11, %c64_i32 {ssbuffer.block_id = 10 : i32} : i32      %13 = arith.index_cast %12 {ssbuffer.block_id = 10 : i32} : i32 to index      %14 = arith.muli %arg17, %c64_i32 {MixUse, ssbuffer.block_id = 10 : i32} : i32      %15 = arith.maxsi %14, %c0_i32 {ssbuffer.block_id = 10 : i32} : i32      %16 = arith.index_cast %15 {ssbuffer.block_id = 10 : i32} : i32 to index      %17 = arith.muli %16, %c256 {ssbuffer.block_id = 10 : i32} : index      %18 = arith.addi %17, %13 {ssbuffer.block_id = 10 : i32} : index      %19 = arith.index_cast %arg12 {ssbuffer.block_id = 10 : i32} : i32 to index      %reinterpret_cast = memref.reinterpret_cast %arg3 to offset: [%18], sizes: [64, 64], strides: [256, 1] {ssbuffer.block_id = 10 : i32} : memref<?xf32> to memref<64x64xf32, strided<[256, 1], offset: ?>>      %20 = arith.muli %arg16, %c64_i32 {ssbuffer.block_id = 10 : i32} : i32      %21 = arith.maxsi %20, %c0_i32 {ssbuffer.block_id = 10 : i32} : i32      %22 = arith.index_cast %21 {ssbuffer.block_id = 10 : i32} : i32 to index      %23 = arith.addi %18, %22 {ssbuffer.block_id = 10 : i32} : index      %reinterpret_cast_4 = memref.reinterpret_cast %arg4 to offset: [%23], sizes: [64, 64], strides: [256, 1] {ssbuffer.block_id = 10 : i32} : memref<?xf32> to memref<64x64xf32, strided<[256, 1], offset: ?>>      %24 = arith.divsi %17, %c256 {ssbuffer.block_id = 10 : i32} : index      %25 = arith.subi %19, %24 {ssbuffer.block_id = 10 : i32} : index      %26 = arith.maxsi %25, %c0 {ssbuffer.block_id = 10 : i32} : index      %27 = arith.minsi %26, %c64 {ssbuffer.block_id = 10 : i32} : index      %28 = arith.remsi %17, %c256 {ssbuffer.block_id = 10 : i32} : index      %29 = arith.subi %c64, %28 {ssbuffer.block_id = 10 : i32} : index      %30 = arith.maxsi %29, %c0 {ssbuffer.block_id = 10 : i32} : index      %31 = arith.minsi %30, %c64 {ssbuffer.block_id = 10 : i32} : index      %32 = arith.subi %c0_i32, %14 {ssbuffer.block_id = 10 : i32} : i32      %33 = arith.maxsi %32, %c0_i32 {ssbuffer.block_id = 10 : i32} : i32      %34 = arith.index_cast %33 {ssbuffer.block_id = 10 : i32} : i32 to index      %35 = arith.minsi %34, %27 {ssbuffer.block_id = 10 : i32} : index      %36 = arith.subi %27, %35 {ssbuffer.block_id = 10 : i32} : index      %37 = arith.minsi %31, %c0 {ssbuffer.block_id = 10 : i32} : index      %38 = arith.subi %31, %37 {ssbuffer.block_id = 10 : i32} : index      %39 = arith.cmpi slt, %36, %c64 {ssbuffer.block_id = 10 : i32} : index      %40 = arith.cmpi slt, %38, %c64 {ssbuffer.block_id = 10 : i32} : index      %41 = arith.ori %39, %40 {ssbuffer.block_id = 10 : i32} : i1      %subview = memref.subview %reinterpret_cast[0, 0] [%36, %38] [1, 1] {ssbuffer.block_id = 10 : i32} : memref<64x64xf32, strided<[256, 1], offset: ?>> to memref<?x?xf32, strided<[256, 1], offset: ?>>      %42 = arith.subi %23, %13 {ssbuffer.block_id = 10 : i32} : index      %43 = arith.divsi %42, %c256 {ssbuffer.block_id = 10 : i32} : index      %44 = arith.subi %19, %43 {ssbuffer.block_id = 10 : i32} : index      %45 = arith.maxsi %44, %c0 {ssbuffer.block_id = 10 : i32} : index      %46 = arith.minsi %45, %c64 {ssbuffer.block_id = 10 : i32} : index      %47 = arith.remsi %42, %c256 {ssbuffer.block_id = 10 : i32} : index      %48 = arith.subi %c64, %47 {ssbuffer.block_id = 10 : i32} : index      %49 = arith.maxsi %48, %c0 {ssbuffer.block_id = 10 : i32} : index      %50 = arith.minsi %49, %c64 {ssbuffer.block_id = 10 : i32} : index      %51 = arith.minsi %34, %46 {ssbuffer.block_id = 10 : i32} : index      %52 = arith.subi %46, %51 {ssbuffer.block_id = 10 : i32} : index      %53 = arith.subi %c0_i32, %20 {ssbuffer.block_id = 10 : i32} : i32      %54 = arith.maxsi %53, %c0_i32 {ssbuffer.block_id = 10 : i32} : i32      %55 = arith.index_cast %54 {ssbuffer.block_id = 10 : i32} : i32 to index      %56 = arith.minsi %55, %50 {ssbuffer.block_id = 10 : i32} : index      %57 = arith.subi %50, %56 {ssbuffer.block_id = 10 : i32} : index      %58 = arith.cmpi slt, %52, %c64 {ssbuffer.block_id = 10 : i32} : index      %59 = arith.cmpi slt, %57, %c64 {ssbuffer.block_id = 10 : i32} : index      %60 = arith.ori %58, %59 {ssbuffer.block_id = 10 : i32} : i1      %subview_5 = memref.subview %reinterpret_cast_4[0, 0] [%52, %57] [1, 1] {ssbuffer.block_id = 10 : i32} : memref<64x64xf32, strided<[256, 1], offset: ?>> to memref<?x?xf32, strided<[256, 1], offset: ?>>      %alloc = memref.alloc() {ssbuffer.block_id = 11 : i32} : memref<64x64xf32>      %subview_6 = memref.subview %alloc[%35, %37] [%36, %38] [1, 1] {ssbuffer.block_id = 11 : i32} : memref<64x64xf32> to memref<?x?xf32, strided<[64, 1], offset: ?>>      %alloc_7 = memref.alloc() {ssbuffer.block_id = 11 : i32} : memref<64x64xf32>      %subview_8 = memref.subview %alloc_7[%51, %56] [%52, %57] [1, 1] {ssbuffer.block_id = 11 : i32} : memref<64x64xf32> to memref<?x?xf32, strided<[64, 1], offset: ?>>      scf.if %41 {        linalg.fill {ssbuffer.block_id = 11 : i32} ins(%cst : f32) outs(%alloc : memref<64x64xf32>)      } {hivm.unlikely_condition, ssbuffer.block_id = 11 : i32}      scf.if %60 {        linalg.fill {ssbuffer.block_id = 11 : i32} ins(%cst : f32) outs(%alloc_7 : memref<64x64xf32>)      } {hivm.unlikely_condition, ssbuffer.block_id = 11 : i32}      memref.copy %subview, %subview_6 {ssbuffer.block_id = 11 : i32} : memref<?x?xf32, strided<[256, 1], offset: ?>> to memref<?x?xf32, strided<[64, 1], offset: ?>>      %61 = bufferization.to_tensor %alloc restrict writable {ssbuffer.block_id = 11 : i32} : memref<64x64xf32>      memref.copy %subview_5, %subview_8 {ssbuffer.block_id = 11 : i32} : memref<?x?xf32, strided<[256, 1], offset: ?>> to memref<?x?xf32, strided<[64, 1], offset: ?>>      %62 = bufferization.to_tensor %alloc_7 restrict writable {ssbuffer.block_id = 11 : i32} : memref<64x64xf32>      %alloc_9 = memref.alloc() {ssbuffer.block_id = 22 : i32, ssbuffer.transfer_id = 0 : i32} : memref<2x4x16x8xf32, #hivm.address_space<cbuf>>      annotation.mark %alloc_9 {effects = [""write"", ""read""], hivm.tightly_coupled_buffer = #hivm.tightly_coupled_buffer<0>, ssbuffer.block_id = 22 : i32, ssbuffer.transfer_id = 0 : i32} : memref<2x4x16x8xf32, #hivm.address_space<cbuf>>      hivm.hir.sync_block_set {ssbuffer.analyze_flag_id, ssbuffer.block_id = 22 : i32, ssbuffer.transfer_id = 0 : i32}[<CUBE>, <PIPE_M>, <PIPE_MTE3>] flag = 1      %alloc_10 = memref.alloc() {ssbuffer.block_id = 22 : i32, ssbuffer.transfer_id = 1 : i32} : memref<8x1x16x8xf32, #hivm.address_space<cbuf>>      annotation.mark %alloc_10 {effects = [""write"", ""read""], hivm.tightly_coupled_buffer = #hivm.tightly_coupled_buffer<1>, ssbuffer.block_id = 22 : i32, ssbuffer.transfer_id = 1 : i32} : memref<8x1x16x8xf32, #hivm.address_space<cbuf>>      hivm.hir.sync_block_set {ssbuffer.analyze_flag_id, ssbuffer.block_id = 22 : i32, ssbuffer.transfer_id = 1 : i32}[<CUBE>, <PIPE_M>, <PIPE_MTE3>] flag = 2      %alloc_11 = memref.alloc() {ssbuffer.block_id = 22 : i32, ssbuffer.transfer_id = 2 : i32} : memref<8x1x16x8xf32, #hivm.address_space<cbuf>>      annotation.mark %alloc_11 {effects = [""write"", ""read""], hivm.tightly_coupled_buffer = #hivm.tightly_coupled_buffer<2>, ssbuffer.block_id = 22 : i32, ssbuffer.transfer_id = 2 : i32} : memref<8x1x16x8xf32, #hivm.address_space<cbuf>>      hivm.hir.sync_block_set {ssbuffer.analyze_flag_id, ssbuffer.block_id = 22 : i32, ssbuffer.transfer_id = 2 : i32}[<CUBE>, <PIPE_M>, <PIPE_MTE3>] flag = 3      %alloc_12 = memref.alloc() {ssbuffer.block_id = 22 : i32, ssbuffer.transfer_id = 3 : i32} : memref<2x4x16x8xf32, #hivm.address_space<cbuf>>      annotation.mark %alloc_12 {effects = [""write"", ""read""], hivm.tightly_coupled_buffer = #hivm.tightly_coupled_buffer<3>, ssbuffer.block_id = 22 : i32, ssbuffer.transfer_id = 3 : i32} : memref<2x4x16x8xf32, #hivm.address_space<cbuf>>      hivm.hir.sync_block_set {ssbuffer.analyze_flag_id, ssbuffer.block_id = 22 : i32, ssbuffer.transfer_id = 3 : i32}[<CUBE>, <PIPE_M>, <PIPE_MTE3>] flag = 4      %alloc_13 = memref.alloc() {ssbuffer.block_id = 22 : i32, ssbuffer.transfer_id = 4 : i32} : memref<64x64xf32, #hivm.address_space<ub>>      annotation.mark %alloc_13 {effects = [""write"", ""read""], hivm.tightly_coupled_buffer = #hivm.tightly_coupled_buffer<4>, ssbuffer.block_id = 22 : i32, ssbuffer.transfer_id = 4 : i32} : memref<64x64xf32, #hivm.address_space<ub>>      %alloc_14 = memref.alloc() {ssbuffer.block_id = 22 : i32, ssbuffer.transfer_id = 5 : i32} : memref<64x16xf32, #hivm.address_space<ub>>      annotation.mark %alloc_14 {effects = [""write"", ""read""], hivm.tightly_coupled_buffer = #hivm.tightly_coupled_buffer<5>, ssbuffer.block_id = 22 : i32, ssbuffer.transfer_id = 5 : i32} : memref<64x16xf32, #hivm.address_space<ub>>      %alloc_15 = memref.alloc() {ssbuffer.block_id = 22 : i32, ssbuffer.transfer_id = 6 : i32} : memref<64x16xf32, #hivm.address_space<ub>>      annotation.mark %alloc_15 {effects = [""write"", ""read""], hivm.tightly_coupled_buffer = #hivm.tightly_coupled_buffer<6>, ssbuffer.block_id = 22 : i32, ssbuffer.transfer_id = 6 : i32} : memref<64x16xf32, #hivm.address_space<ub>>      %alloc_16 = memref.alloc() {ssbuffer.block_id = 22 : i32, ssbuffer.transfer_id = 7 : i32} : memref<64x64xf32, #hivm.address_space<ub>>      annotation.mark %alloc_16 {effects = [""write"", ""read""], hivm.tightly_coupled_buffer = #hivm.tightly_coupled_buffer<7>, ssbuffer.block_id = 22 : i32, ssbuffer.transfer_id = 7 : i32} : memref<64x64xf32, #hivm.address_space<ub>>      scf.for %arg19 = %3 to %arg12 step %c1_i32  : i32 {        %63 = arith.addi %9, %arg19 {ssbuffer.block_id = 9 : i32} : i32        %64 = arith.addi %2, %arg19 {ssbuffer.block_id = 18 : i32} : i32        %65 = arith.muli %64, %c32_i32 {ssbuffer.block_id = 18 : i32} : i32        %66 = arith.index_cast %65 {ssbuffer.block_id = 18 : i32} : i32 to index        %67 = arith.index_cast %4 {ssbuffer.block_id = 18 : i32} : i32 to index        %68 = arith.addi %66, %67 {ssbuffer.block_id = 18 : i32} : index        %69 = arith.index_cast %arg17 {ssbuffer.block_id = 18 : i32} : i32 to index        %70 = arith.addi %68, %69 {ssbuffer.block_id = 18 : i32} : index        %reinterpret_cast_17 = memref.reinterpret_cast %arg10 to offset: [%70], sizes: [1], strides: [1] {ssbuffer.block_id = 18 : i32} : memref<?xi8> to memref<1xi8, strided<[1], offset: ?>>        %71 = memref.load %reinterpret_cast_17[%c0] {ssbuffer.block_id = 18 : i32, was_bool_to_int8 = true} : memref<1xi8, strided<[1], offset: ?>>        %72 = arith.cmpi ne, %71, %c0_i8 {Undefined, ssbuffer.block_id = 18 : i32} : i8        scf.if %72 {          hivm.hir.sync_block_wait {ssbuffer.analyze_flag_id, ssbuffer.block_id = 4 : i32, ssbuffer.transfer_id = 2 : i32}[<CUBE>, <PIPE_MTE3>, <PIPE_MTE1>] flag = 3          %73 = hivm.hir.convert_layout %alloc_11 output_shape [16, 64] {dstLayout = #hivm.data_layout<ND>, srcLayout = #hivm.data_layout<nZ>, ssbuffer.block_id = 4 : i32, ssbuffer.transfer_id = 2 : i32} : (memref<8x1x16x8xf32, #hivm.address_space<cbuf>>) -> memref<16x64xf32, #hivm.address_space<cbuf>>          %memspacecast = memref.memory_space_cast %73 {ssbuffer.block_id = 4 : i32, ssbuffer.transfer_id = 2 : i32} : memref<16x64xf32, #hivm.address_space<cbuf>> to memref<16x64xf32>          %74 = bufferization.to_tensor %memspacecast restrict writable {ssbuffer.block_id = 4 : i32, ssbuffer.transfer_id = 2 : i32} : memref<16x64xf32>          %transposed = linalg.transpose ins(%74 : tensor<16x64xf32>) outs(%5 : tensor<64x16xf32>) permutation = [1, 0]  {ssbuffer.block_id = 4 : i32}          %75 = linalg.matmul {input_precision = ""ieee"", ssbuffer.block_id = 4 : i32} ins(%61, %transposed : tensor<64x64xf32>, tensor<64x16xf32>) outs(%6 : tensor<64x16xf32>) -> tensor<64x16xf32>          hivm.hir.sync_block_set {ssbuffer.analyze_flag_id, ssbuffer.block_id = 4 : i32, ssbuffer.transfer_id = 2 : i32}[<CUBE>, <PIPE_M>, <PIPE_MTE3>] flag = 3          hivm.hir.sync_block_wait {ssbuffer.analyze_flag_id, ssbuffer.block_id = 4 : i32, ssbuffer.transfer_id = 5 : i32}[<CUBE>, <PIPE_V>, <PIPE_FIX>] flag = 6          hivm.hir.fixpipe {dma_mode = #hivm.dma_mode<nz2nd>, ssbuffer.block_id = 4 : i32, ssbuffer.transfer_id = 5 : i32} ins(%75 : tensor<64x16xf32>) outs(%alloc_14 : memref<64x16xf32, #hivm.address_space<ub>>)          hivm.hir.sync_block_set {ssbuffer.analyze_flag_id, ssbuffer.block_id = 4 : i32, ssbuffer.transfer_id = 5 : i32}[<CUBE>, <PIPE_FIX>, <PIPE_V>] flag = 6          %76 = arith.muli %63, %c4096_i32 {ssbuffer.block_id = 5 : i32} : i32          %77 = arith.index_cast %76 {ssbuffer.block_id = 5 : i32} : i32 to index          %78 = arith.muli %8, %c16_i32 {ssbuffer.block_id = 5 : i32} : i32          %79 = arith.maxsi %78, %c0_i32 {ssbuffer.block_id = 5 : i32} : i32          %80 = arith.index_cast %79 {ssbuffer.block_id = 5 : i32} : i32 to index          %81 = arith.muli %80, %c64 {ssbuffer.block_id = 5 : i32} : index          %82 = arith.addi %81, %77 {ssbuffer.block_id = 5 : i32} : index          %83 = arith.subi %c0_i32, %78 {ssbuffer.block_id = 5 : i32} : i32          %84 = arith.maxsi %83, %c0_i32 {ssbuffer.block_id = 5 : i32} : i32          %85 = arith.index_cast %84 {ssbuffer.block_id = 5 : i32} : i32 to index          %86 = arith.addi %82, %22 {ssbuffer.block_id = 5 : i32} : index          %alloc_18 = memref.alloc() {ssbuffer.block_id = 5 : i32} : memref<16x64xf32>          %87 = arith.subi %86, %77 {ssbuffer.block_id = 5 : i32} : index          %88 = arith.divsi %87, %c64 {ssbuffer.block_id = 5 : i32} : index          %89 = arith.subi %c64, %88 {ssbuffer.block_id = 5 : i32} : index          %90 = arith.maxsi %89, %c0 {ssbuffer.block_id = 5 : i32} : index          %91 = arith.minsi %90, %c16 {ssbuffer.block_id = 5 : i32} : index          %92 = arith.remsi %87, %c64 {ssbuffer.block_id = 5 : i32} : index          %93 = arith.subi %c64, %92 {ssbuffer.block_id = 5 : i32} : index          %94 = arith.maxsi %93, %c0 {ssbuffer.block_id = 5 : i32} : index          %95 = arith.minsi %94, %c64 {ssbuffer.block_id = 5 : i32} : index          %96 = arith.minsi %85, %91 {ssbuffer.block_id = 5 : i32} : index          %97 = arith.subi %91, %96 {ssbuffer.block_id = 5 : i32} : index          %98 = arith.minsi %55, %95 {ssbuffer.block_id = 5 : i32} : index          %99 = arith.subi %95, %98 {ssbuffer.block_id = 5 : i32} : index          %100 = arith.cmpi slt, %97, %c16 {ssbuffer.block_id = 5 : i32} : index          %101 = arith.cmpi slt, %99, %c64 {ssbuffer.block_id = 5 : i32} : index          %102 = arith.ori %100, %101 {ssbuffer.block_id = 5 : i32} : i1          scf.if %102 {            linalg.fill {ssbuffer.block_id = 5 : i32} ins(%cst : f32) outs(%alloc_18 : memref<16x64xf32>)          } {hivm.unlikely_condition, ssbuffer.block_id = 5 : i32}          %reinterpret_cast_19 = memref.reinterpret_cast %arg7 to offset: [%86], sizes: [16, 64], strides: [64, 1] {ssbuffer.block_id = 5 : i32} : memref<?xf32> to memref<16x64xf32, strided<[64, 1], offset: ?>>          %subview_20 = memref.subview %reinterpret_cast_19[0, 0] [%97, %99] [1, 1] {ssbuffer.block_id = 5 : i32} : memref<16x64xf32, strided<[64, 1], offset: ?>> to memref<?x?xf32, strided<[64, 1], offset: ?>>          %subview_21 = memref.subview %alloc_18[%96, %98] [%97, %99] [1, 1] {ssbuffer.block_id = 5 : i32} : memref<16x64xf32> to memref<?x?xf32, strided<[64, 1], offset: ?>>          memref.copy %subview_20, %subview_21 {ssbuffer.block_id = 5 : i32} : memref<?x?xf32, strided<[64, 1], offset: ?>> to memref<?x?xf32, strided<[64, 1], offset: ?>>          %103 = bufferization.to_tensor %alloc_18 restrict writable {ssbuffer.block_id = 5 : i32} : memref<16x64xf32>          %104 = tensor.empty() {ssbuffer.block_id = 5 : i32} : tensor<64x64xf32>          %105 = linalg.fill {ssbuffer.block_id = 5 : i32} ins(%cst : f32) outs(%104 : tensor<64x64xf32>) -> tensor<64x64xf32>          hivm.hir.sync_block_wait {ssbuffer.analyze_flag_id, ssbuffer.block_id = 5 : i32, ssbuffer.transfer_id = 3 : i32}[<CUBE>, <PIPE_MTE3>, <PIPE_MTE1>] flag = 4          %106 = hivm.hir.convert_layout %alloc_12 output_shape [64, 16] {dstLayout = #hivm.data_layout<ND>, srcLayout = #hivm.data_layout<nZ>, ssbuffer.block_id = 5 : i32, ssbuffer.transfer_id = 3 : i32} : (memref<2x4x16x8xf32, #hivm.address_space<cbuf>>) -> memref<64x16xf32, #hivm.address_space<cbuf>>          %memspacecast_22 = memref.memory_space_cast %106 {ssbuffer.block_id = 5 : i32, ssbuffer.transfer_id = 3 : i32} : memref<64x16xf32, #hivm.address_space<cbuf>> to memref<64x16xf32>          %107 = bufferization.to_tensor %memspacecast_22 restrict writable {ssbuffer.block_id = 5 : i32, ssbuffer.transfer_id = 3 : i32} : memref<64x16xf32>          %108 = linalg.matmul {input_precision = ""ieee"", ssbuffer.block_id = 5 : i32} ins(%107, %103 : tensor<64x16xf32>, tensor<16x64xf32>) outs(%105 : tensor<64x64xf32>) -> tensor<64x64xf32>          hivm.hir.sync_block_set {ssbuffer.analyze_flag_id, ssbuffer.block_id = 5 : i32, ssbuffer.transfer_id = 3 : i32}[<CUBE>, <PIPE_M>, <PIPE_MTE3>] flag = 4          hivm.hir.sync_block_wait {ssbuffer.analyze_flag_id, ssbuffer.block_id = 5 : i32, ssbuffer.transfer_id = 7 : i32}[<CUBE>, <PIPE_V>, <PIPE_FIX>] flag = 8          hivm.hir.fixpipe {dma_mode = #hivm.dma_mode<nz2nd>, ssbuffer.block_id = 5 : i32, ssbuffer.transfer_id = 7 : i32} ins(%108 : tensor<64x64xf32>) outs(%alloc_16 : memref<64x64xf32, #hivm.address_space<ub>>)          hivm.hir.sync_block_set {ssbuffer.analyze_flag_id, ssbuffer.block_id = 5 : i32, ssbuffer.transfer_id = 7 : i32}[<CUBE>, <PIPE_FIX>, <PIPE_V>] flag = 8          %transposed_23 = linalg.transpose ins(%103 : tensor<16x64xf32>) outs(%5 : tensor<64x16xf32>) permutation = [1, 0]  {ssbuffer.block_id = 6 : i32}          %109 = linalg.matmul {input_precision = ""ieee"", ssbuffer.block_id = 6 : i32} ins(%62, %transposed_23 : tensor<64x64xf32>, tensor<64x16xf32>) outs(%6 : tensor<64x16xf32>) -> tensor<64x16xf32>          hivm.hir.sync_block_wait {ssbuffer.analyze_flag_id, ssbuffer.block_id = 6 : i32, ssbuffer.transfer_id = 6 : i32}[<CUBE>, <PIPE_V>, <PIPE_FIX>] flag = 7          hivm.hir.fixpipe {dma_mode = #hivm.dma_mode<nz2nd>, ssbuffer.block_id = 6 : i32, ssbuffer.transfer_id = 6 : i32} ins(%109 : tensor<64x16xf32>) outs(%alloc_15 : memref<64x16xf32, #hivm.address_space<ub>>)          hivm.hir.sync_block_set {ssbuffer.analyze_flag_id, ssbuffer.block_id = 6 : i32, ssbuffer.transfer_id = 6 : i32}[<CUBE>, <PIPE_FIX>, <PIPE_V>] flag = 7          %110 = tensor.empty() {ssbuffer.block_id = 7 : i32} : tensor<64x64xf32>          %111 = linalg.fill {ssbuffer.block_id = 7 : i32} ins(%cst : f32) outs(%110 : tensor<64x64xf32>) -> tensor<64x64xf32>          hivm.hir.sync_block_wait {ssbuffer.analyze_flag_id, ssbuffer.block_id = 7 : i32, ssbuffer.transfer_id = 0 : i32}[<CUBE>, <PIPE_MTE3>, <PIPE_MTE1>] flag = 1          %112 = hivm.hir.convert_layout %alloc_9 output_shape [64, 16] {dstLayout = #hivm.data_layout<ND>, srcLayout = #hivm.data_layout<nZ>, ssbuffer.block_id = 7 : i32, ssbuffer.transfer_id = 0 : i32} : (memref<2x4x16x8xf32, #hivm.address_space<cbuf>>) -> memref<64x16xf32, #hivm.address_space<cbuf>>          %memspacecast_24 = memref.memory_space_cast %112 {ssbuffer.block_id = 7 : i32, ssbuffer.transfer_id = 0 : i32} : memref<64x16xf32, #hivm.address_space<cbuf>> to memref<64x16xf32>          %113 = bufferization.to_tensor %memspacecast_24 restrict writable {ssbuffer.block_id = 7 : i32, ssbuffer.transfer_id = 0 : i32} : memref<64x16xf32>          hivm.hir.sync_block_wait {ssbuffer.analyze_flag_id, ssbuffer.block_id = 7 : i32, ssbuffer.transfer_id = 1 : i32}[<CUBE>, <PIPE_MTE3>, <PIPE_MTE1>] flag = 2          %114 = hivm.hir.convert_layout %alloc_10 output_shape [16, 64] {dstLayout = #hivm.data_layout<ND>, srcLayout = #hivm.data_layout<nZ>, ssbuffer.block_id = 7 : i32, ssbuffer.transfer_id = 1 : i32} : (memref<8x1x16x8xf32, #hivm.address_space<cbuf>>) -> memref<16x64xf32, #hivm.address_space<cbuf>>          %memspacecast_25 = memref.memory_space_cast %114 {ssbuffer.block_id = 7 : i32, ssbuffer.transfer_id = 1 : i32} : memref<16x64xf32, #hivm.address_space<cbuf>> to memref<16x64xf32>          %115 = bufferization.to_tensor %memspacecast_25 restrict writable {ssbuffer.block_id = 7 : i32, ssbuffer.transfer_id = 1 : i32} : memref<16x64xf32>          %116 = linalg.matmul {input_precision = ""ieee"", ssbuffer.block_id = 7 : i32} ins(%113, %115 : tensor<64x16xf32>, tensor<16x64xf32>) outs(%111 : tensor<64x64xf32>) -> tensor<64x64xf32>          hivm.hir.sync_block_set {ssbuffer.analyze_flag_id, ssbuffer.block_id = 7 : i32, ssbuffer.transfer_id = 0 : i32}[<CUBE>, <PIPE_M>, <PIPE_MTE3>] flag = 1          hivm.hir.sync_block_set {ssbuffer.analyze_flag_id, ssbuffer.block_id = 7 : i32, ssbuffer.transfer_id = 1 : i32}[<CUBE>, <PIPE_M>, <PIPE_MTE3>] flag = 2          hivm.hir.sync_block_wait {ssbuffer.analyze_flag_id, ssbuffer.block_id = 7 : i32, ssbuffer.transfer_id = 4 : i32}[<CUBE>, <PIPE_V>, <PIPE_FIX>] flag = 5          hivm.hir.fixpipe {dma_mode = #hivm.dma_mode<nz2nd>, ssbuffer.block_id = 7 : i32, ssbuffer.transfer_id = 4 : i32} ins(%116 : tensor<64x64xf32>) outs(%alloc_13 : memref<64x64xf32, #hivm.address_space<ub>>)          hivm.hir.sync_block_set {ssbuffer.analyze_flag_id, ssbuffer.block_id = 7 : i32, ssbuffer.transfer_id = 4 : i32}[<CUBE>, <PIPE_FIX>, <PIPE_V>] flag = 5        } {DataUse, ssbuffer.block_id = 21 : i32}      } {DataUse, ssbuffer.block_id = 22 : i32, ssbuffer.main_loop = 0 : i32}      hivm.hir.sync_block_wait {ssbuffer.analyze_flag_id, ssbuffer.block_id = 22 : i32, ssbuffer.transfer_id = 7 : i32}[<CUBE>, <PIPE_V>, <PIPE_FIX>] flag = 8      hivm.hir.sync_block_wait {ssbuffer.analyze_flag_id, ssbuffer.block_id = 22 : i32, ssbuffer.transfer_id = 6 : i32}[<CUBE>, <PIPE_V>, <PIPE_FIX>] flag = 7      hivm.hir.sync_block_wait {ssbuffer.analyze_flag_id, ssbuffer.block_id = 22 : i32, ssbuffer.transfer_id = 5 : i32}[<CUBE>, <PIPE_V>, <PIPE_FIX>] flag = 6      hivm.hir.sync_block_wait {ssbuffer.analyze_flag_id, ssbuffer.block_id = 22 : i32, ssbuffer.transfer_id = 4 : i32}[<CUBE>, <PIPE_V>, <PIPE_FIX>] flag = 5      scope.return    } {hivm.tcore_type = #hivm.tcore_type<CUBE>}    return  }}``````bash[CreateIfOps] [CreateIfOps] [UpdateForOps] [UpdateForOps] [UpdateConditionInfoPass] Enter UpdateConditionInfo pass.[UpdateConditionInfoPass] crossCoreDependentMap is empty![UpdateConditionInfoPass] crossCoreBuffers and intraCoreBuffers are both empty![UpdateConditionInfoPass] updateIfConds failed![UpdateConditionInfoPass] Exit UpdateConditionInfo pass.[AddControlFlowCondition] Pass failed![AddControlFlowCondition] Exit add controlflow condition pass.```### Environment detailsTRITON：0608 日构建",,,,,,,
448,910B上运行通过的算子在950上报错error: Failed to run buildFinalHIVMPipelines pipeline,[Misc],open,bug,2026-06-05T06:18:33Z,"### Describe the bugTriton算子：import torchimport torch_npuimport tritonimport triton.language as tlimport numpy as npimport triton.language.extra.cann.extension as extensionfrom triton.backends.ascend.testing import do_bench_npuimport triton.runtime.driver as drivertorch.manual_seed(20)torch.set_printoptions(sci_mode=False, precision=4, linewidth=300)def get_npu_properties():    device = torch.npu.current_device()    return driver.active.utils.get_device_properties(device)@triton.jitdef _attn_fwd(        # tensor        query,         key,        value,         output,        sparse_indices,        actual_seq_lengths_query,        actual_seq_lengths_kv,        # scalar        scale_value: tl.constexpr,        sparse_block_size: tl.constexpr,        sparse_size: tl.constexpr,        sparse_mode: tl.constexpr,        # const        stride_qb: tl.constexpr, stride_qs: tl.constexpr, stride_qn: tl.constexpr, stride_qd: tl.constexpr,        stride_ob: tl.constexpr, stride_os: tl.constexpr, stride_on: tl.constexpr, stride_od: tl.constexpr,        stride_sb: tl.constexpr, stride_ss: tl.constexpr,        B: tl.constexpr, Q_S: tl.constexpr, Q_N: tl.constexpr, Q_D: tl.constexpr,        KV_S: tl.constexpr, K_D: tl.constexpr, V_D: tl.constexpr,        BLOCK_KS_SIZE: tl.constexpr,        BLOCK_QN_SIZE: tl.constexpr,):    BLOCK_QN_NUM = Q_N // BLOCK_QN_SIZE    NUM_BLOCKS = B * Q_S * BLOCK_QN_NUM        pid = tl.program_id(0)    num_cores = tl.num_programs(0)        # b*n cut    for bsn_idx in range(pid, NUM_BLOCKS, num_cores):                off_b = (bsn_idx // (Q_S * BLOCK_QN_NUM)).to(tl.int32) # b_blk_idx        off_s = ((bsn_idx // BLOCK_QN_NUM) % Q_S).to(tl.int32) # local_s_idx        off_n = (bsn_idx % BLOCK_QN_NUM).to(tl.int32) # local_n_idx                q_offset = off_b * stride_qb + off_s * stride_qs        o_offset = off_b * stride_ob + off_s * stride_os        sparse_offset = off_b * stride_sb + off_s * stride_ss                cur_act_s_q = tl.load(actual_seq_lengths_query + off_b)        cur_act_s_kv = tl.load(actual_seq_lengths_kv + off_b)                Q_block_ptr = tl.make_block_ptr(            base=query + q_offset,            shape=(Q_N, Q_D),            strides=(stride_qn, stride_qd),            offsets=(off_n * BLOCK_QN_SIZE, 0),            block_shape=(BLOCK_QN_SIZE, Q_D),            order=(1, 0),        )        O_block_ptr = tl.make_block_ptr(            base=output + o_offset,            shape=(Q_N, V_D),            strides=(stride_on, stride_od),            offsets=(off_n * BLOCK_QN_SIZE, 0),            block_shape=(BLOCK_QN_SIZE, V_D),            order=(1, 0),        )        cur_q = tl.load(Q_block_ptr) # (BLOCK_QN_SIZE, Q_D)        m = tl.full((BLOCK_QN_SIZE,), float('-inf'), dtype=tl.float32)        l_sum = tl.zeros((BLOCK_QN_SIZE,), dtype=tl.float32)        acc = tl.zeros((BLOCK_QN_SIZE, V_D), dtype=tl.float32)            # output accumulator                BLOCK_KS_NUM = sparse_size // BLOCK_KS_SIZE        # tail blk if need        for spa_blk_id in range(BLOCK_KS_NUM):            # 1. loading sparse indices            sparse_off = sparse_offset + spa_blk_id * BLOCK_KS_SIZE + tl.arange(0, BLOCK_KS_SIZE)            spa_1d = tl.load(sparse_indices + sparse_off)                        # 2. gather k and v (using index_select_simd or manual load)            # use 3 dimension, since index_select_simd src cannot apply + k_offset, important!            k_block = extension.index_select_simd(                src=key, dim=1, index=spa_1d,                src_shape=(B, KV_S, K_D), src_offset=(off_b, 0, 0), read_shape=(1, -1, K_D)            )  # (1, BLOCK_S, K_D)                        # tail block will influence the k_sparse            k_block = tl.reshape(k_block, (BLOCK_KS_SIZE, K_D))                        v_block = extension.index_select_simd(                src=value, dim=1, index=spa_1d,                src_shape=(B, KV_S, V_D), src_offset=(off_b, 0, 0), read_shape=(1, -1, V_D)            )            v_block = tl.reshape(v_block, (BLOCK_KS_SIZE, V_D))                        # 3. compute qk for this block            qk = tl.dot(cur_q, tl.trans(k_block))         # (BLOCK_QN_SIZE, BLOCK_S)            qk = qk * scale_value                        if sparse_mode == 3 and Q_S != 1:                delta = cur_act_s_kv - cur_act_s_q                valid_mask = (spa_1d <= off_s + delta) & (spa_1d >= 0)                qk = tl.where(valid_mask[None, :], qk, float('-inf'))            # 4. —— online Softmax update ——            block_max = tl.max(qk, axis=1)    # (BLOCK_QN_SIZE, )            new_m = tl.maximum(m, block_max)    # (BLOCK_QN_SIZE, )                        coeff = tl.math.exp(m - new_m)  #            p = tl.math.exp(qk - new_m[:, None])            l_sum = l_sum * coeff + tl.sum(p, axis=1)                        # update accumulator            pv = tl.dot(p, v_block.to(tl.float32))  # (BLOCK_QN_SIZE, V_D)            acc = acc * coeff[:, None] + pv            m = new_m        # Final normalize        acc = acc / l_sum[:, None]  # (BLOCK_QN_SIZE, V_D)                tl.store(O_block_ptr, acc.to(tl.float16))                def triton_sparse_flash_attention(    query,    key,    value,    sparse_indices,    scale_value,    sparse_block_size=1,    actual_seq_lengths_query=None,    actual_seq_lengths_kv=None,    query_rope=None,    key_rope=None,    layout_query='BSND',    layout_kv='BSND',    sparse_mode=0,    block_table=None    ):            # kv PA_BSND -> BSND    if layout_kv == 'PA_BSND':        key = pa_to_bsnd(key, block_table, actual_seq_lengths_kv)        key_rope = pa_to_bsnd(key_rope, block_table, actual_seq_lengths_kv)        value = key.clone()            # q TND -> BSND    if layout_query == 'TND':        actual_seq_lengths_query = trans_tnd_actseq(actual_seq_lengths_query)        query = trans_tnd_to_bsnd(query, query.shape, actual_seq_lengths_query)        query_rope = trans_tnd_to_bsnd(query_rope, query_rope.shape, actual_seq_lengths_query)        sparse_indices = trans_tnd_to_bsnd(sparse_indices, sparse_indices.shape, actual_seq_lengths_query)            # bsnd -> bnsd    if query_rope is not None:        query = torch.cat([query, query_rope], dim=-1)  # shape: [B, Q_S, Q_N, D + D_rope]        key = torch.cat([key, key_rope], dim=-1)        out_shape_bnsd = list(query.shape)    if query_rope is not None:        out_shape_bnsd[-1] = out_shape_bnsd[-1] - query_rope.shape[-1]    output = torch.empty(out_shape_bnsd, device=query.device, dtype=torch.float16)    B, Q_S, Q_N, Q_D = query.shape    KV_S, K_D = key.shape[1], key.shape[-1]    V_D = value.shape[-1]    sparse_size = sparse_indices.shape[-1] # 2048        BLOCK_KS_SIZE = 16 # aviod ub overflow    BLOCK_QN_SIZE = 8 # 8 is better    # since KV_N = 1, all Q_N share one KV_N, ignore KV_N dim    # do this trans in pa_to_bsnd    key = key.reshape(B, KV_S, K_D)    value = value.reshape(B, KV_S, V_D)    sparse_indices = sparse_indices.reshape(B, Q_S, sparse_size)        num_cores = get_npu_properties()[""num_vectorcore""]        _attn_fwd[(num_cores,)](        # tensor        query,         key,         value,         output,         sparse_indices,         actual_seq_lengths_query,         actual_seq_lengths_kv,         # scalar        scale_value,         sparse_block_size,         sparse_size,         sparse_mode,         # const        query.stride(0), query.stride(1), query.stride(2), query.stride(3),         output.stride(0), output.stride(1), output.stride(2), output.stride(3),         sparse_indices.stride(0), sparse_indices.stride(1),         B, Q_S, Q_N, Q_D,         KV_S, K_D, V_D,         BLOCK_KS_SIZE,         BLOCK_QN_SIZE,         )        if layout_query == 'TND':        return trans_bsnd_to_tnd(output, actual_seq_lengths_query)        return outputdef pa_to_bsnd(pa_in, block_table, actual_seq_lengths):    block_num, block_size, n, d = pa_in.shape    b = len(actual_seq_lengths)    output = torch.zeros((b, block_num * block_size // b, 1, d), dtype=pa_in.dtype, device=pa_in.device)    for i in range(b):        for j in range(actual_seq_lengths[i] // block_size):            output[i, j * block_size: (j + 1) * block_size, 0, :] = \                pa_in[block_table[i][j], :, 0, :].reshape(block_size, d)    return outputdef trans_tnd_to_bsnd(tensor, shape, act_seq):    t = shape[0]    n = shape[1]    d = shape[2]    b = len(act_seq)    s = max(act_seq)    output = torch.zeros((b, s, n, d), dtype=tensor.dtype, device=tensor.device)    t_start = 0    for b_idx in range(b):        act_s = act_seq[b_idx]        t_end = t_start + act_s        if act_s == 0:            continue        for n_idx in range(n):            output[b_idx, 0:act_s, n_idx, :] = tensor[t_start:t_end, n_idx, :]        t_start += act_s    return outputdef trans_bnsd_to_tnd(tensor, act_seq):    t = sum(act_seq)    b = tensor.shape[0]    n = tensor.shape[1]    d = tensor.shape[3]    output = torch.full(size=(t, n, d), fill_value=-1, dtype=tensor.dtype, device=tensor.device)    t_start = 0    for b_idx in range(b):        act_s = act_seq[b_idx]        t_end = t_start + act_s        if act_s == 0:            continue        for n_idx in range(n):            output[t_start:t_end, n_idx, :] = tensor[b_idx, n_idx, :act_s, :]        t_start += act_s    return outputdef trans_bsnd_to_tnd(tensor, act_seq):    t = sum(act_seq)    b, max_s, n, d = tensor.shape    output = torch.full((t, n, d), fill_value=-1, dtype=tensor.dtype, device=tensor.device)        t_start = 0    for b_idx in range(b):        act_s = act_seq[b_idx]        if act_s == 0:            continue        t_end = t_start + act_s        output[t_start:t_end, :, :] = tensor[b_idx, :act_s, :, :]        t_start = t_end        return outputdef trans_tnd_actseq(seq):    list_len = len(seq)    output = []    output.append(seq[0])    for i in range(list_len - 1):        new_item = seq[i + 1] - seq[i]        if new_item >= 0:            output.append(new_item)        else:            print(f""[ERROR]trans_tnd_actseq: Wrong input actseq:{seq}, in loop {i}, item {new_item} < 0"")    return torch.tensor(output, dtype=seq.dtype, device=seq.device)def cpu_pa_to_bsnd(pa_in, block_table, actual_seq_lengths):    block_num, block_size, n, d = pa_in.shape    b = len(actual_seq_lengths)    output = torch.zeros((b, block_num * block_size // b, 1, d)).to(pa_in.dtype)    for i in range(b):        for j in range(actual_seq_lengths[i] // block_size):            output[i, j * block_size: (j + 1) * block_size, 0, :] = \                pa_in[block_table[i][j], :, 0, :].reshape(block_size, d)    return outputdef gather_kv(k_tensor,            v_tensor,            sparse_indices,            sparse_block_size,            batch,            n2_idx,            cur_actual_seq_lengths_kv            ):    s2_sparse = list()    for sparse_id in sparse_indices:        if sparse_id == -1:             break        begin_idx = sparse_id * sparse_block_size        end_idx = begin_idx + sparse_block_size if begin_idx + sparse_block_size <= cur_actual_seq_lengths_kv else cur_actual_seq_lengths_kv        s2_sparse.extend(np.arange(begin_idx, end_idx))    k_sparse, v_sparse = k_tensor[batch, n2_idx, s2_sparse, :], v_tensor[batch, n2_idx, s2_sparse, :]    return k_sparse, v_sparsedef mask(res, cur_acutal_seq_lengths_q, cur_actual_seq_lengths_kv, cur_sparse_indices, s1_idx, sparse_blocksize):    # tail ID    sparse_tail_idx = np.ceil(cur_actual_seq_lengths_kv / sparse_blocksize)     sparse_tail_seq_len = cur_actual_seq_lengths_kv % sparse_blocksize    if sparse_tail_seq_len == 0:        sparse_tail_seq_len = sparse_blocksize    # casul    delta_s = cur_actual_seq_lengths_kv - cur_acutal_seq_lengths_q    threshold = delta_s + s1_idx + 1    s_idx = 0    for _, sparse_id in enumerate(cur_sparse_indices):        if sparse_id == -1:            break        begin_idx = sparse_id * sparse_blocksize        block_len = sparse_blocksize if sparse_id != sparse_tail_idx - 1 else sparse_tail_seq_len        end_idx = begin_idx + block_len        if begin_idx < threshold and end_idx <= threshold:            s_idx += block_len            continue        elif end_idx > threshold:            local_offset = 0 if threshold <= begin_idx else threshold - begin_idx            mask_begin = s_idx + local_offset            mask_end = s_idx + block_len            res[:, mask_begin: mask_end] = -1e12        s_idx += block_len    return resdef softmax(x):    x = x.astype(np.float32)    x_max = x.max(axis=-1, keepdims=True)    x_sub = x - x_max    y = np.exp(x_sub)    x_sum = y.sum(axis=-1, keepdims=True)    ans = y / x_sum    return ansdef cpu_trans_tnd_to_bsnd(tensor, shape, act_seq):    t = shape[0]    n = shape[1]    d = shape[2]    b = len(act_seq)    s = max(act_seq)    output = np.zeros((b, s, n, d), dtype=tensor.dtype)    t_start = 0    for b_idx in range(b):        act_s = act_seq[b_idx]        t_end = t_start + act_s        if act_s == 0:            continue        for n_idx in range(n):            output[b_idx, 0:act_s, n_idx, :] = tensor[t_start:t_end, n_idx, :]        t_start += act_s    return outputdef cpu_trans_bnsd_to_tnd(tensor, shape, act_seq):    t = sum(act_seq)    b = tensor.shape[0]    n = tensor.shape[1]    d = tensor.shape[3]    output = torch.full(size=(t, n, d), fill_value=-1, dtype=tensor.dtype)    t_start = 0    for b_idx in range(b):        act_s = act_seq[b_idx]        t_end = t_start + act_s        if act_s == 0:            continue        for n_idx in range(n):            output[t_start:t_end, n_idx, :] = tensor[b_idx, n_idx, :act_s, :]        t_start += act_s    return outputdef cpu_trans_tnd_actseq(seq):    list_len = len(seq)    output = []    output.append(seq[0])    for i in range(list_len - 1):        new_item = seq[i + 1] - seq[i]        if new_item >= 0:            output.append(new_item)        else:            print(f""[ERROR]trans_tnd_actseq: Wrong input actseq:{seq}, in loop {i}, item {new_item} < 0"")    return outputdef cpu_sparse_flash_attention(    query,     key,     value,     sparse_indices,     scale_value,     sparse_block_size,    actual_seq_lengths_query,     actual_seq_lengths_kv,    query_rope=None,     key_rope=None,    layout_query='BSND',     layout_kv='BSND',     sparse_mode=0,     block_table=None    ):    query = query.cpu().detach().to(torch.float32).numpy()    if layout_kv == 'PA_BSND':        key = cpu_pa_to_bsnd(key, block_table, actual_seq_lengths_kv)        key_rope = cpu_pa_to_bsnd(key_rope, block_table, actual_seq_lengths_kv)    key = key.cpu().detach().to(torch.float32).numpy()    value = key.copy()    sparse_indices = sparse_indices.cpu().numpy()    actual_seq_lengths_query = actual_seq_lengths_query.cpu().numpy()    actual_seq_lengths_kv = actual_seq_lengths_kv.cpu().numpy()    query_rope = query_rope.cpu().detach().to(torch.float32).numpy()    key_rope = key_rope.cpu().detach().to(torch.float32).numpy()    batch_size = actual_seq_lengths_query.shape[0]    num_heads = query.shape[2]    num_kv_heads = key.shape[2]    sparse_count = sparse_indices.shape[-1]    g = num_heads // num_kv_heads # group size    if layout_query == 'TND':        actual_seq_lengths_query = cpu_trans_tnd_actseq(actual_seq_lengths_query)        query = cpu_trans_tnd_to_bsnd(query, query.shape, actual_seq_lengths_query)        query_rope = cpu_trans_tnd_to_bsnd(query_rope, query_rope.shape, actual_seq_lengths_query)        sparse_indices = cpu_trans_tnd_to_bsnd(sparse_indices, sparse_indices.shape, actual_seq_lengths_query)    q_bnsd_tensor = np.transpose(np.concatenate([query, query_rope], axis=-1), axes=(0, 2, 1, 3))    k_bnsd_tensor = np.transpose(np.concatenate([key, key_rope], axis=-1), axes=(0, 2, 1, 3))    v_bnsd_tensor = np.transpose(value, axes=(0, 2, 1, 3))    sparse_indices = np.transpose(sparse_indices, axes=(0, 2, 1, 3))    matmul_dtype = np.float32    out_shape_bnsd = list(q_bnsd_tensor.shape)    out_shape_bnsd[-1] = out_shape_bnsd[-1] - query_rope.shape[-1]    y = np.zeros(out_shape_bnsd, dtype=np.float32)    for batch in range(batch_size):        cur_acutal_seq_lengths_q = actual_seq_lengths_query[batch]        cur_actual_seq_lengths_kv = actual_seq_lengths_kv[batch]        for n2_idx in range(num_kv_heads):            for s1_idx in range(cur_acutal_seq_lengths_q):                q_curr = q_bnsd_tensor[batch, n2_idx * g: (n2_idx + 1) * g, s1_idx, :]                cur_sparse_indices = sparse_indices[batch, n2_idx, s1_idx, :]                k_sparse, v_sparse = gather_kv(k_bnsd_tensor, v_bnsd_tensor, cur_sparse_indices, sparse_block_size,                                            batch, n2_idx, cur_actual_seq_lengths_kv)                                mm1_res = np.matmul(q_curr.astype(np.float32), k_sparse.astype(np.float32).T, dtype=matmul_dtype)                scale_res = mm1_res * scale_value                if sparse_mode == 3:                    mask_res = mask(scale_res, cur_acutal_seq_lengths_q, cur_actual_seq_lengths_kv,                                    cur_sparse_indices, s1_idx, sparse_block_size)                else:                    mask_res = scale_res                softmax_res = softmax(mask_res)                mm2_res = np.matmul(softmax_res, v_sparse, dtype=matmul_dtype)                y[batch, n2_idx * g: (n2_idx + 1) * g, s1_idx, :] = mm2_res    if layout_query == 'TND':        cpu_out = torch.tensor(y)        return cpu_trans_bnsd_to_tnd(cpu_out, cpu_out.shape, actual_seq_lengths_query)    return torch.from_numpy(np.transpose(y, axes=(0, 2, 1, 3)))def test_op(T, B, KV_S, Q_N, KV_N, D, D_rope, sparse_size, scale_value, sparse_block_size, sparse_mode, block_size, act_kv_s):        assert sparse_size <= act_kv_s    assert KV_N == 1    assert sparse_mode == 0 or 3    assert sparse_block_size == 1    assert (B * KV_S) % block_size == 0    assert D == 512    assert D_rope == 0 or 64    assert act_kv_s % block_size == 0    assert sparse_size % 32 == 0    assert Q_N % 16 == 0        qkv_dtype = torch.float16    DEVICE = ""npu""        query = torch.empty((T, Q_N, D), dtype=qkv_dtype, device=DEVICE).normal_(mean=0.0, std=0.5).requires_grad_()    key = torch.empty((B * KV_S // block_size, block_size, KV_N, D), dtype=qkv_dtype, device=DEVICE).normal_(mean=0.0, std=0.5).requires_grad_()    value = key.clone()    act_q_s = T // B # step    rand_vals = torch.rand(T, KV_N, act_kv_s, device=DEVICE)    _, indices = torch.topk(rand_vals, sparse_size, dim=-1)    sparse_indices = indices.to(torch.int32)        actual_seq_lengths_query = torch.tensor([1]).to(torch.int32).to(""npu"")    actual_seq_lengths_kv = torch.tensor([act_kv_s] * B, dtype=torch.int32, device=DEVICE)    block_table = torch.tensor([range(B * KV_S // block_size)], dtype=torch.int32, device=DEVICE).reshape(B, -1)    if D_rope == 0:        query_rope = None        key_rope = None    else:        query_rope = torch.empty((T, Q_N, D_rope), dtype=qkv_dtype, device=DEVICE).normal_(mean=0.0, std=0.5).requires_grad_()        key_rope = torch.empty((B * KV_S // block_size, block_size, KV_N, D_rope), dtype=qkv_dtype, device=DEVICE).normal_(mean=0.0, std=0.5).requires_grad_()        common_args = {        ""query"": query,        ""key"": key,        ""value"": value,        ""sparse_indices"": sparse_indices,        ""scale_value"": scale_value,        ""sparse_block_size"": sparse_block_size,        ""actual_seq_lengths_query"": actual_seq_lengths_query,        ""actual_seq_lengths_kv"": actual_seq_lengths_kv,        ""query_rope"": query_rope,        ""key_rope"": key_rope,        ""layout_query"": 'TND',        ""layout_kv"": 'PA_BSND',        ""sparse_mode"": sparse_mode,        ""block_table"": block_table,    }    tri_out = triton_sparse_flash_attention(**common_args)        cpu_out = cpu_sparse_flash_attention(**common_args)        cpu_out = cpu_out.to(tri_out.dtype).to(""npu"")    print(""tri_out"", tri_out, tri_out.shape)    print(""cpu_out"", cpu_out, cpu_out.shape)        time_cost = do_bench_npu(lambda: triton_sparse_flash_attention(**common_args), warmup=1, active=5)    print(f""Timing Cost: {time_cost}"")    torch.testing.assert_close(tri_out, cpu_out, atol=1e-3, rtol=1e-3, equal_nan=True)    print(f""[PASSED]"")if __name__ == ""__main__"":    test_op(T=1, B=1, KV_S=48000, Q_N=128, KV_N=1, D=512, D_rope=64, sparse_size=2048, scale_value=0.5, sparse_block_size=1, sparse_mode=3, block_size=128, act_kv_s=16000)算子报错信息：python tests/test_sparse_flash_attention.pyTraceback (most recent call last):  File ""/opt/buildtools/python-3.12.9/lib/python3.12/site-packages/triton/compiler/compiler.py"", line 289, in compile    next_module = compile_ir(module, metadata)                  ^^^^^^^^^^^^^^^^^^^^^^^^^^^^  File ""/opt/buildtools/python-3.12.9/lib/python3.12/site-packages/triton/backends/ascend/compiler.py"", line 954, in <lambda>    lambda src, metadata: linalg_to_bin_enable_npu_compile_910_95(                          ^^^^^^^^^^^^^^^^^^^^^^^^^^^^^^^^^^^^^^^^  File ""/opt/buildtools/python-3.12.9/lib/python3.12/site-packages/triton/backends/ascend/compiler.py"", line 465, in linalg_to_bin_enable_npu_compile_910_95    ret = subprocess.run(          ^^^^^^^^^^^^^^^  File ""/opt/buildtools/python-3.12.9/lib/python3.12/subprocess.py"", line 573, in run    raise CalledProcessError(retcode, process.args,subprocess.CalledProcessError: Command '['/opt/buildtools/python-3.12.9/lib/python3.12/site-packages/triton/backends/ascend/bishengir-a5/bin/bishengir-compile', '/tmp/tmp5fc1mh9d/kernel.ttadapter.mlir', '--target=Ascend950PR_9579', '--enable-auto-multi-buffer=False', '--enable-auto-bind-sub-block=True', '--disable-ffts', '--enable-hfusion-compile=true', '--enable-triton-kernel-compile=true', '--append-bisheng-options=-cce-link-aicore-ll-module /opt/buildtools/python-3.12.9/lib/python3.12/site-packages/triton/backends/ascend/lib/libdevice.10.bc', '-o', '/tmp/tmp5fc1mh9d/kernel', '--enable-vf-merge-level=1']' returned non-zero exit status 1.The above exception was the direct cause of the following exception:Traceback (most recent call last):  File ""/home/workspace/triton-ascend-kernels/competitions/06_practices/2026/sfa/tests/test_sparse_flash_attention.py"", line 409, in <module>    test_op(  File ""/home/workspace/triton-ascend-kernels/competitions/06_practices/2026/sfa/tests/test_sparse_flash_attention.py"", line 391, in test_op    tri_out = triton_sparse_flash_attention(**common_args)              ^^^^^^^^^^^^^^^^^^^^^^^^^^^^^^^^^^^^^^^^^^^^  File ""/home/workspace/triton-ascend-kernels/competitions/06_practices/2026/sfa/kernel/sparse_flash_attention.py"", line 220, in triton_sparse_flash_attention    _attn_fwd[(num_cores,)](  File ""/opt/buildtools/python-3.12.9/lib/python3.12/site-packages/triton/runtime/jit.py"", line 333, in <lambda>    return lambda *args, **kwargs: self.run(grid=grid, warmup=False, *args, **kwargs)                                   ^^^^^^^^^^^^^^^^^^^^^^^^^^^^^^^^^^^^^^^^^^^^^^^^^^  File ""/opt/buildtools/python-3.12.9/lib/python3.12/site-packages/triton/runtime/jit.py"", line 622, in run    kernel = self._do_compile(key, signature, device, backend, target, constants, options, configs[0], warmup)             ^^^^^^^^^^^^^^^^^^^^^^^^^^^^^^^^^^^^^^^^^^^^^^^^^^^^^^^^^^^^^^^^^^^^^^^^^^^^^^^^^^^^^^^^^^^^^^^^^  File ""/opt/buildtools/python-3.12.9/lib/python3.12/site-packages/triton/runtime/jit.py"", line 787, in _do_compile    kernel = self.compile(src, target=target, options=options.__dict__)             ^^^^^^^^^^^^^^^^^^^^^^^^^^^^^^^^^^^^^^^^^^^^^^^^^^^^^^^^^^  File ""/opt/buildtools/python-3.12.9/lib/python3.12/site-packages/triton/compiler/compiler.py"", line 303, in compile    raise MLIRCompilationError(stage_name, error_detail) from etriton.compiler.errors.MLIRCompilationError:///------------------[ERROR][Triton][BEG]------------------[ConvertLinalgRToBinary] encounters error:loc(""/home/workspace/triton-ascend-kernels/competitions/06_practices/2026/sfa/kernel/sparse_flash_attention.py"":18:0): error: Failed to run buildFinalHIVMPipelines pipelineloc(""/home/workspace/triton-ascend-kernels/competitions/06_practices/2026/sfa/kernel/sparse_flash_attention.py"":114:16): error: 'memref.load' op incorrect number of indices for load, expected 2 but got 1loc(""/home/workspace/triton-ascend-kernels/competitions/06_practices/2026/sfa/kernel/sparse_flash_attention.py"":118:42): error: 'tensor.collapse_shape' op Unsupported op for finding the root alloc.loc(""/home/workspace/triton-ascend-kernels/competitions/06_practices/2026/sfa/kernel/sparse_flash_attention.py"":148:38): error: 'hivm.hir.vcast' op Unsupported op for finding the root alloc.loc(""/home/workspace/triton-ascend-kernels/competitions/06_practices/2026/sfa/kernel/sparse_flash_attention.py"":144:28): error: 'hivm.hir.vexp' op Unsupported op for finding the root alloc.[ERROR] Failed to run BiShengIR pipeline[INFO]: The compiled kernel cache is in /root/.triton/cache/VtYLUJ-P5G9kBvOVdHZ3qraiSHm9seiQTrSxbZS9nYE///------------------[ERROR][Triton][END]------------------[ERROR] 2026-06-04-20:05:09 (PID:14944, Device:0, RankID:-1) ERR99999 UNKNOWN applicaiton exception### Environment detailsTriton3.2.1cann9.0.0950PR",,,,,,,
434,[Performance] Optimize structured strided memory access on Ascend 910_95,[Performance],open,performance,2026-06-04T10:23:56Z,"## ProblemOn Ascend 910_95 SIMT kernels, structured strided `tl.load` / `tl.store` accesses are lowered through the legacy structured path:```texttl.load / tl.store  -> reinterpret_cast(offset, size, stride)  -> memref.load / memref.copy```This path is still suitable for contiguous accesses and static power-of-two strides, which can be handled by the existing strided DMA / deinterleave path.However, for 1D tensors and non-permuted block pointers whose last-axis stride is static non-power-of-two or dynamic, the legacy structured path can become inefficient. These cases should be dispatched to the SIMT indirect load/store path on 910_95.There is a second, related performance issue in FLA-style kernels. Some kernels either read a column with an H-axis split stride, or launch many tiny contiguous tiles. Both shapes create small or inefficient DMAs even though the accessed datacan be made contiguous by safely coalescing work inside one program.## Expected BehaviorOn 91095 with SIMT template enabled:```textstructured load/store  |- permuted access                  -> existing ImplicitPermute path  |- static power-of-two last stride  -> legacy reinterpret_cast / strided DMA handled by compact mode  `- dynamic or static non-pow2 stride -> indirect_load / indirect_store```When a safe coalescing pattern is found, the adapter should also reduce the launch grid in Triton-Ascend itself.",,,,,,,
427,[ssbuffer]Performance issues in the rwkv6_fwd_A operator caused by premature reshaping.,[ssbuffer],open,bug,2026-06-04T06:52:01Z,"### Describe the bugreshape太前导致无法并行，细节可查看https://wiki.huawei.com/domains/177494/wiki/372785/WIKI2026060211320693?title=_c38a5ac6<!-- Failed to upload ""image.png"" -->### Environment detailsmsprof op simulator --soc-version=Ascend950PR_9589 --core-id=0 pytest /home/z00896713/fla/flash-linear-attention/tests/ops/ascend_ops/cv_operator/test_chunk_rwkv6_fwd_A_kernel_intra_sub_inter/test_chunk_rwkv6_fwd_A_kernel_intra_sub_inter_npu.py -sv",,,,,,,
418,OffsetAnalysis and BlockPtrAnalysis don't support hivm custom op,[Misc],open,,2026-06-04T02:10:14Z,"Consider cases as below:1. this custom op will return tensor<!tt.ptr> value, it will enter in OffsetAnalysis```%a_ptrs_83 = hivm.hir.custom {SrcPtrIndex = array<i32: 0>, hivm.is_distributed, hivm.pipe = #hivm.pipe<PIPE_S>, hivm.tcore_type = #hivm.tcore_type<CUBE_AND_VECTOR>, hivm.vf_mode = #hivm.vf_mode<SIMD>, no_side_effect, symbol = ""aclshmem_consume_token_half_ptr_2d""} ""dist.aclshmem_consume_token_half_ptr_2d"" ins(%a_ptrs_76, %token_34 : tensor<128x32x!tt.ptr<f16>>, i32) outs(%a_ptrs_82 : tensor<128x32x!tt.ptr<f16>>) -> tensor<128x32x!tt.ptr<f16>>```2. this custom op will return !tt.ptr value, if it is used by tt.load, it will enter in BlockPtrAnalysis```%remote_mem_ptr = hivm.hir.custom {hivm.is_distributed, hivm.pipe = #hivm.pipe<PIPE_S>, hivm.tcore_type = #hivm.tcore_type<CUBE_AND_VECTOR>, hivm.vf_mode = #hivm.vf_mode<SIMD>, no_side_effect, symbol = ""aclshmem_ptr_int64""} ""dist.aclshmem_ptr_int64"" ins(%remote_ptr, %target_rank : !tt.ptr<i64>, i32) -> !tt.ptr<i64>```in these two analysis, they will throw error, because they lack parseCustomOp",,,,,,,
402,【社区任务】mrope算子开发任务书,[Misc],open,,2026-06-03T07:18:45Z,在昇腾NPU上基于triton-ascend编程语言，实现和CANN中功能一致的mRoPE算子。完成算子设计、开发、测试全流程工作，验收通过后将算子提交至昇腾算子开源仓。任务详细说明见附件。[mrope算子开发任务书.md](https://github.com/user-attachments/files/28540598/mrope.md),,,,,,,
398,【社区任务】dynamicQuant算子开发任务书,[Misc],open,,2026-06-03T07:05:09Z,在昇腾NPU上基于triton-ascend编程语言，实现和CANN中功能一致的dynamicQuant算子。完成算子设计、开发、测试全流程工作，验收通过后将算子提交至昇腾算子开源仓。任务详细说明见附件。[dynamicQuant算子开发任务书.md](https://github.com/user-attachments/files/28540482/dynamicQuant.md),,,,,,,
389,Triton-Ascend开源共建任务池,[Misc],open,"documentation,community-task",2026-06-02T13:12:59Z,🎯 Triton-Ascend开源共建任务池认领方式点击下方任务ID进入对应Issue在Issue下留言「认领这个任务」我们会及时分配并@您一位开发者只能同时领取一个任务，启动验收后才能领取下一个算子任务| 任务ID | 任务描述 | 对接人 | 状态 | 承接人 ||-------|-------|-------| ------- | -------|| [06-01](https://github.com/triton-lang/triton-ascend/issues/403) | kvRmsNormRopeCache算子开发 |  @jiangbo96|  已认领 |  @useritem || [06-02](https://github.com/triton-lang/triton-ascend/issues/402) | mrope算子开发 |  @jiangbo96|  已认领 | @chongweiliu || [06-03](https://github.com/triton-lang/triton-ascend/issues/401) | addRmsNorm算子开发 |  @jiangbo96|  已认领 | @Hastur5540 || [06-04](https://github.com/triton-lang/triton-ascend/issues/398) | dynamicQuant算子开发 |  @jiangbo96|  已认领 | @Su-ISE-2001  |更新说明每月更新任务池，补充新任务任务领取并分配成功后，需在2周内完成设计文档并评论“申请文档验收”除特殊情况外，如果2周没有和接口人沟通进展，任务会回到资源池开放认领任务整体完成后评论“申请验收”您有任何问题请在对应任务Issue下提问，我们会及时回复昇腾共建任务，对应的激励政策即将到来，敬请期待~,,,,,,,
354,Supports pure Ascend (MSPTI only) without requiring CUDA/ROCm dev packages,[Misc],open,,2026-06-01T07:55:53Z,"Supports pure Ascend (MSPTI only) without requiring CUDA/ROCm dev packagesUses lightweight header + source stubs only when backends are disabledKeeps simple and readable CMake logicForces all vendor includesIt does FATAL_ERROR if CUPTI_INCLUDE_DIR or ROCTRACER_INCLUDE_DIR are not defined. This makes it impossible to build a clean Ascend-only version (PROTON_ENABLE_CUPTI=OFF, PROTON_ENABLE_ROCTRACER=OFF).Always pulls in ROCTRACER headersEvery object library gets:cmaketarget_include_directories(... SYSTEM PRIVATE ""${ROCTRACER_INCLUDE_DIR}"")Even when AMD backend is disabled.Overly complex structureUses global properties + add_proton_library() function + subdirectories + collecting object files. This adds unnecessary complexity compared to a simple file(GLOB) + direct add_library(proton SHARED ...) approach.PR https://github.com/triton-lang/triton-ascend/pull/135",,,,,,,
336,打开调试export MLIR_ENABLE_DUMP=1 export TRITON_DEBUG=1后关闭，还有HiIPU的打印信息,[Misc],open,bug,2026-05-30T07:27:29Z,"### Describe the bug打开调试如下：export MLIR_ENABLE_DUMP=1export TRITON_DEBUG=1然后再关闭export MLIR_ENABLE_DUMP=0export TRITON_DEBUG=0还有HiIPU的打印信息export MLIR_ENABLE_DUMP=0root@k8s-master:/home/workspace/triton-ascend-kernels/competitions/06_practices/2026/gather# export TRITON_DEBUG=0root@k8s-master:/home/workspace/triton-ascend-kernels/competitions/06_practices/2026/gather# msprof op --output=/home/workspace/profiling/ python tests/test_gather.py 0 1 65536 0[WARNING] msprof is running as root. For security reasons, use a regular user account instead.2026-05-30 07:14:56 [WARN]  Currently, the root permission is used, which is unrecommended. Please ensure the security of the execution environment and programs.2026-05-30 07:14:56 [INFO]  Op profiling analysis start.2026-05-30 07:14:56 [INFO]  Running device task: DeviceProf==================================================测试1：标准示例======================================================shape=[2, 0], axis=0, indices_size=1, dtype=torch.int32[INFO] <ProfData> Start profiling on device 0, kernel: _triton_gather_notune[INFO] <WarmUp> Warm Up enabled. times:5--------------------------------------------------------------------------------------------------------------HiIPU Print--------------------------------------------------------------------------------------------------------------==> Logical Block 0=> Physical Block=> Physical Block=> Physical Block### Environment detailsTriton3.2cann9.0.0910B3",,,,,,,
329,【TTFHW】triton-ascend的默认pypi版本安装路径不能拿到最新版本,[Misc],open,,2026-05-30T03:47:01Z,https://github.com/triton-lang/triton-ascend/blob/main/docs/zh/quick_start.md  main分支的文档中文中描述的triton-ascend的最新版本安装路径不能拿到最新版本。pypi最新版本已是3.2.1，但是在默认路径下面找不到3.2.1版本，因为新版本pypi路径已经切换到  https://triton-ascend.osinfra.cn/pypi/simple 路径下面,,,,,,,
323,[Bug] Source line information lost for ops eliminated during compilation — many kernel lines unbreakable in msdebug,[Bug],open,bug,2026-05-29T13:44:14Z,"### Describe the bug## SummaryMany Triton ops are eliminated, folded, absorbed, or otherwise consumed during the compilation pipeline. Each elimination silently drops the op's source `loc(...)`, so the corresponding kernel line never reaches the `.npubin`'s DWARF line table. The result: msdebug cannot set breakpoints on a significant fraction of source lines in a typical kernel, with no indication to the user that the line was elided rather than truly empty.```(msdebug) b kernel.py:6No locations (pending breakpoint).```The user has no way to tell, by looking at their kernel, whether a missing breakpoint means ""this line really does nothing"" or ""the compiler ate the carrier for this line.""## Affected categoriesWe hit this systematically across multiple op classes. Each category loses lines for a different reason:1. **Replaced ops** — `tt.get_program_id`, `tt.get_num_programs` and similar are replaced with direct kernel-argument reads. The original op is erased; its loc goes with it.2. **Folded ops in the Triton dialect** — `SplatOp::fold` and `BroadcastOp::fold` collapse splats/broadcasts of constants into `arith.constant dense<...>` *before* any Ascend pass runs. The fold's materialized constant carries the consumer's loc, not the folded op's.3. **Absorbed pointer arithmetic** — `tt.addptr`'s offset (e.g. `block_start + arange(0, N)`, or 2D `row[:,None]*BLOCK + col[None,:]`) is consumed analytically by `BlockPtrAnalysis` and rolled into `memref.reinterpret_cast` strides/offsets. The defining ops (`arith.muli`, `arith.addi`, `tt.make_range`, `tt.expand_dims`) are erased before any converter sees them.4. **Layout-only ops that survive but are optimized away later** — `tt.trans`, `tt.reshape`, `tt.expand_dims` lower to `linalg.transpose`/`tensor.reshape`/etc. in TTAdapter, then bishengir eliminates them downstream as zero-instruction transforms.5. **Callsite-wrapped library ops** — `tl.sum` and other helpers from `triton/language/standard.py` produce `tt.reduce` whose loc is `callsite(standard.py:N at kernel.py:M)`. DWARF emission resolves this to the library frame (standard.py), not the kernel frame, so the kernel line is missing while a useless library line appears instead.6. **Fused locations** — when two source-level ops collapse into one op (e.g. `tl.full` + `tl.broadcast_to` → single `linalg.fill`), the survivor carries a `FusedLoc[line_A, line_B]`. bishengir's DWARF emitter collapses `FusedLoc` to the function-level loc, losing both inner lines.## ReproducerA kernel exercising all the categories above:```pythonimport torch, tritonimport triton.language as tl@triton.jitdef k(xp, op4, op1, n, BLOCK: tl.constexpr, ROWS: tl.constexpr):    pid  = tl.program_id(0)                                 # category 1    np_  = tl.num_programs(0)                               # category 1    offs = pid * BLOCK + tl.arange(0, BLOCK)                # category 3 (1D)    one  = tl.full((BLOCK,), 1.0, dtype=tl.float32)         # category 2    x    = tl.load(xp + offs)    bcast = tl.broadcast_to(tl.reshape(x, (1, BLOCK)), (ROWS, BLOCK))   # category 4    trans = tl.trans(tl.reshape(x, (1, BLOCK)))             # category 4    row   = tl.arange(0, ROWS)    offs2 = row[:, None] * BLOCK + tl.arange(0, BLOCK)[None, :]   # category 3 (2D)    s     = tl.sum(bcast.to(tl.float32), axis=1)            # category 5    tl.store(op1 + offs,  x + one + tl.sum(trans.to(tl.float32), axis=1)[:, 0])    tl.store(op4 + offs2, bcast + s[:, None])``````bashmsdebug python3 kernel.py(msdebug) b kernel.py:6(msdebug) r```Compile, then:```bashreadelf --debug-dump=decodedline cache/<HASH>/k.npubin | grep <kernel.py>```Compare against the lines present in the TTIR `loc(...)` references. The difference is the lines that vanished — at the time of this report, ~8 distinct categories of loss were reproducible with kernels along these lines.## Why it matters- Source-level debugging is the primary way users diagnose kernel issues, especially perf and correctness bugs that only show up on real hardware (where `TRITON_INTERPRET` doesn't help).- The loss is silent: no warning, no indication. Users blame their setup or their syntax when in fact the compiler ate the line.- The pattern of loss is non-obvious: visually ""trivial"" lines (a `tl.trans`, a `tl.full`) seem like they should work, but don't, while ""complex"" lines (loads, atomics) tend to work fine. The mental model is exactly inverted from where users expect breakpoints to land.## Current workaround (PR #151)When `TRITON_DEBUG=1` is set, the Ascend pipeline emits `llvm.inline_asm ""nop""` markers tagged with the original op's loc, before that op is replaced/absorbed/erased. The NOPs become real PCs in the `.npubin`, each carrying a DWARF entry for its source line. With `TRITON_DEBUG` unset, no NOPs are emitted and the binary is bit-identical to the pre-patch output.### Environment details- triton-ascend `release/3.5.x`- 910B4- LLVM/MLIR `fad32722`- TRITON_DISABLE_FFTS=0- TRITON_DEBUG=1- TRITON_DISABLE_LINE_INFO=0- TRITON_KERNEL_DUMP=1- TRITON_ALWAYS_COMPILE=1- TRITON_DEVICE_PRINT=1",,,,,,,
302,"error: ub overflow, requires 3072000 bits while 1572864 bits available",[Misc],open,bug,2026-05-29T01:24:20Z,"### Describe the bug==block_size= 48000Traceback (most recent call last):  File ""/usr/local/python3.11.14/lib/python3.11/site-packages/triton/compiler/compiler.py"", line 310, in compile    next_module = compile_ir(module, metadata)                  ^^^^^^^^^^^^^^^^^^^^^^^^^^^^  File ""/usr/local/python3.11.14/lib/python3.11/site-packages/triton/backends/ascend/compiler.py"", line 778, in <lambda>    lambda src, metadata: linalg_to_bin_enable_npu_compile_A2_A3(                          ^^^^^^^^^^^^^^^^^^^^^^^^^^^^^^^^^^^^^^^  File ""/usr/local/python3.11.14/lib/python3.11/site-packages/triton/backends/ascend/compiler.py"", line 549, in linalg_to_bin_enable_npu_compile_A2_A3    ret = subprocess.run(cmd_list, capture_output=True, check=True)          ^^^^^^^^^^^^^^^^^^^^^^^^^^^^^^^^^^^^^^^^^^^^^^^^^^^^^^^^^  File ""/usr/local/python3.11.14/lib/python3.11/subprocess.py"", line 571, in run    raise CalledProcessError(retcode, process.args,subprocess.CalledProcessError: Command '['/usr/local/Ascend/cann-8.5.0/tools/bishengir/bin/bishengir-compile', '/tmp/tmpnlunekny/kernel.ttadapter.mlir', '--target=Ascend910B3', '--enable-auto-multi-buffer=True', '--enable-auto-bind-sub-block=True', '--enable-hfusion-compile=true', '--enable-hivm-compile=true', '--enable-triton-kernel-compile=true', '-o', '/tmp/tmpnlunekny/kernel']' returned non-zero exit status 1.During handling of the above exception, another exception occurred:Traceback (most recent call last):  File ""/home/workspace/triton-ascend-kernels/competitions/06_practices/2026/gather/tests/test_gather.py"", line 251, in <module>    do_bench_perf.run(show_plots=True, print_data=True, save_path=""."")  File ""/usr/local/python3.11.14/lib/python3.11/site-packages/triton/testing.py"", line 486, in run    result_dfs.append(self._run(bench, save_path, show_plots, print_data, **kwargs))                      ^^^^^^^^^^^^^^^^^^^^^^^^^^^^^^^^^^^^^^^^^^^^^^^^^^^^^^^^^^^^^  File ""/usr/local/python3.11.14/lib/python3.11/site-packages/triton/testing.py"", line 430, in _run    ret = self.fn(**x_args, **{bench.line_arg: y}, **bench.args, **kwrags)          ^^^^^^^^^^^^^^^^^^^^^^^^^^^^^^^^^^^^^^^^^^^^^^^^^^^^^^^^^^^^^^^^  File ""/home/workspace/triton-ascend-kernels/competitions/06_practices/2026/gather/tests/test_gather.py"", line 193, in do_bench_perf    return benchmark_perf(shape, indices_size, axis, dtype, block_size, provider)           ^^^^^^^^^^^^^^^^^^^^^^^^^^^^^^^^^^^^^^^^^^^^^^^^^^^^^^^^^^^^^^^^^^^^^^  File ""/home/workspace/triton-ascend-kernels/competitions/06_practices/2026/gather/tests/test_gather.py"", line 141, in benchmark_perf    ms = triton.testing.do_bench(         ^^^^^^^^^^^^^^^^^^^^^^^^  File ""/usr/local/python3.11.14/lib/python3.11/site-packages/triton/testing.py"", line 147, in do_bench    fn()  File ""/home/workspace/triton-ascend-kernels/competitions/06_practices/2026/gather/tests/test_gather.py"", line 142, in <lambda>    lambda: triton_gather(x, indices, axis, block_size=block_size)            ^^^^^^^^^^^^^^^^^^^^^^^^^^^^^^^^^^^^^^^^^^^^^^^^^^^^^^  File ""/home/workspace/triton-ascend-kernels/competitions/06_practices/2026/gather/kernel/gather.py"", line 187, in triton_gather    _triton_gather_notune[grid](  File ""/usr/local/python3.11.14/lib/python3.11/site-packages/triton/runtime/jit.py"", line 353, in <lambda>    return lambda *args, **kwargs: self.run(grid=grid, warmup=False, *args, **kwargs)                                   ^^^^^^^^^^^^^^^^^^^^^^^^^^^^^^^^^^^^^^^^^^^^^^^^^^  File ""/usr/local/python3.11.14/lib/python3.11/site-packages/triton/runtime/jit.py"", line 660, in run    kernel = self.compile(             ^^^^^^^^^^^^^  File ""/usr/local/python3.11.14/lib/python3.11/site-packages/triton/compiler/compiler.py"", line 320, in compile    raise MLIRCompilationError(stage_name, error_detail)triton.compiler.errors.MLIRCompilationError:///------------------[ERROR][Triton][BEG]------------------[ConvertLinalgRToBinary] encounters error:loc(""/tmp/tmpnlunekny/kernel.ttadapter.mlir"":1:1): error: Failed to run BiShengHIR pipelineloc(""/tmp/tmpnlunekny/kernel.ttadapter.mlir"":2:3): error: ub overflow, requires 3072000 bits while 1572864 bits available! (possible reason: tiling basic block is too large or block number is more than what user expect due to multi-buffer feature is enabled and some ops need extra local buffer.)loc(""/tmp/tmpnlunekny/kernel.ttadapter.mlir"":1:1): error: Failed to run BiShengHIR pipelineloc(""/tmp/tmpnlunekny/kernel.ttadapter.mlir"":2:3): error: ub overflow, requires 3072000 bits while 1572864 bits available! (possible reason: tiling basic block is too large or block number is more than what user expect due to multi-buffer feature is enabled and some ops need extra local buffer.)loc(""/tmp/tmpnlunekny/kernel.ttadapter.mlir"":1:1): error: Failed to run BiShengHIR pipelineloc(""/tmp/tmpnlunekny/kernel.ttadapter.mlir"":2:3): error: ub overflow, requires 3072000 bits while 1572864 bits available! (possible reason: tiling basic block is too large or block number is more than what user expect due to multi-buffer feature is enabled and some ops need extra local buffer.)loc(""/tmp/tmpnlunekny/kernel.ttadapter.mlir"":1:1): error: Failed to run BiShengHIR pipelineloc(""/tmp/tmpnlunekny/kernel.ttadapter.mlir"":2:3): error: ub overflow, requires 3072000 bits while 1572864 bits available! (possible reason: tiling basic block is too large or block number is more than what user expect due to multi-buffer feature is enabled and some ops need extra local buffer.)loc(""/tmp/tmpnlunekny/kernel.ttadapter.mlir"":1:1): error: Failed to run BiShengHIR pipelineloc(""/tmp/tmpnlunekny/kernel.ttadapter.mlir"":2:3): error: ub overflow, requires 3072000 bits while 1572864 bits available! (possible reason: tiling basic block is too large or block number is more than what user expect due to multi-buffer feature is enabled and some ops need extra local buffer.)[ERROR] Failed to run BiShengIR pipeline[INFO]: The compiled kernel cache is in /root/.triton/cache/tF-lXIFGboNrA_d_VeGtqDk64O3hHQ_MIM3uwd-qrFk///------------------[ERROR][Triton][END]------------------[ERROR] 2026-05-28-12:03:23 (PID:129557, Device:0, RankID:-1) ERR99999 UNKNOWN applicaiton exception### Environment detailsTriton 3.2Ascend10B3",,,,,,,
295,get_autotune_cv_config  get_autotune_vector_config好像是死代码，如何让auto_tuing使能这部分,[Misc],open,bug,2026-05-28T09:36:50Z,"### Describe the bug```pythondef get_autotune_cv_config(**kwargs: Any) -> List[triton.Config]:    """"""    Generate autotune configuration for the mixcv operator.    Supported parameters: num_stages, unit_flag, limit_auto_multi_buffer_only_for_local_buffer,                limit_auto_multi_buffer_of_local_buffer, set_workspace_multibuffer,                enable_hivm_auto_cv_balance, tile_mix_vector_loop, tile_mix_cube_loop, enable_ubuf_saving    """"""    import triton    return MixcvAutotuner.get_configs(**kwargs)def get_autotune_vector_config(**kwargs: Any) -> List[triton.Config]:    """"""    Generate autotune configuration for the vector operator.    Supported parameters: num_stages, enable_ubuf_saving    """"""    import triton    return VectorAutotuner.get_configs(**kwargs)```如何在auto_tuing中使能？### Environment detailsTA： 3.2.1",,,,,,,
293,matmul算子开箱性能差,[Misc],open,,2026-05-28T08:46:15Z,"[matmul_kernel_npu.py](https://github.com/user-attachments/files/28340472/matmul_kernel_npu.py)性能数据：性能基准测试: M=32, K=32, N=32  Triton: 0.055 ms, 0.001 TFLOPS  PyTorch: 0.003 ms, 0.025 TFLOPS  加速比: 0.048x性能基准测试: M=64, K=64, N=64  Triton: 0.120 ms, 0.004 TFLOPS  PyTorch: 0.003 ms, 0.180 TFLOPS  加速比: 0.024x性能基准测试: M=128, K=128, N=128  Triton: 0.250 ms, 0.017 TFLOPS  PyTorch: 0.003 ms, 1.333 TFLOPS  加速比: 0.013x性能基准测试: M=256, K=256, N=256  Triton: 0.617 ms, 0.054 TFLOPS  PyTorch: 0.004 ms, 7.854 TFLOPS  加速比: 0.007x性能基准测试: M=512, K=512, N=512  Triton: 2.448 ms, 0.110 TFLOPS  PyTorch: 0.007 ms, 40.729 TFLOPS  加速比: 0.003x性能基准测试: M=1024, K=1024, N=1024  Triton: 13.716 ms, 0.157 TFLOPS  PyTorch: 0.017 ms, 129.961 TFLOPS  加速比: 0.001x性能基准测试: M=2048, K=2048, N=2048  Triton: 87.411 ms, 0.197 TFLOPS  PyTorch: 0.058 ms, 296.812 TFLOPS  加速比: 0.001x性能基准测试: M=4096, K=4096, N=4096  Triton: 640.065 ms, 0.215 TFLOPS  PyTorch: 0.396 ms, 347.102 TFLOPS  加速比: 0.001x",,,,,,,
271,FlashAttentionScore算子开箱性能很差,[Misc],open,performance,2026-05-27T07:54:27Z,"### Describe the issue@triton.autotune(     configs=[           triton.Config({'BQ': 256, 'BK': 128}, num_warps=8),           triton.Config({'BQ': 128, 'BK': 64}, num_warps=8),           triton.Config({'BQ': 64, 'BK': 64}, num_warps=8),           triton.Config({'BQ': 64, 'BK': 32}, num_warps=4),           triton.Config({'BQ': 32, 'BK': 64}, num_warps=4),           triton.Config({'BQ': 32, 'BK': 32}, num_warps=4),           triton.Config({'BQ': 16, 'BK': 16}, num_warps=2),       ],       key=['n', 'D'],  # 当 n 或 D 变化时重新调优  )  @triton.jit  def flash_attention_forward_kernel(       q,       k,       v,       out,       l,       stride_qb,       stride_qn,       stride_qd,       stride_kb,       stride_kn,       stride_kd,       stride_vb,       stride_vn,       stride_vd,       stride_ob,       stride_on,       stride_od,       stride_lb,       stride_ln,       n: tl.int32,       d_scale: tl.float32,       IS_CAUSAL: tl.constexpr,       BQ: tl.constexpr,       BK: tl.constexpr,       D: tl.constexpr,       eps: tl.constexpr,   ):     pid_b = tl.program_id(0)    pid_tq = tl.program_id(1)    q_block_ptr = tl.make_block_ptr(         base=q + pid_b * stride_qb,         shape=(n, D),         strides=(stride_qn, stride_qd),         offsets=(pid_tq * BQ, 0),        block_shape=(BQ, D),         order=(1, 0),     )     k_block_ptr = tl.make_block_ptr(         base=k + pid_b * stride_kb,         shape=(D, n),         strides=(stride_kd, stride_kn),         offsets=(0, 0),        block_shape=(D, BK),         order=(0, 1),     )     v_block_ptr = tl.make_block_ptr(         base=v + pid_b * stride_vb,         shape=(n, D),        strides=(stride_vn, stride_vd),         offsets=(0, 0),        block_shape=(BK, D),         order=(1, 0),     )     o_block_ptr = tl.make_block_ptr(         base=out + pid_b * stride_ob,         shape=(n, D),         strides=(stride_on, stride_od),         offsets=(pid_tq * BQ, 0),         block_shape=(BQ, D),         order=(1, 0),     )     l_ptrs = l + pid_b * stride_lb + (pid_tq * BQ + tl.arange(0, BQ))     m_i = tl.full([BQ], value=float(""-inf""), dtype=tl.float32)     l_i = tl.zeros([BQ], dtype=tl.float32)     o_i = tl.zeros([BQ, D], dtype=tl.float32)     q_i = tl.load(q_block_ptr, boundary_check=(0, 1))     q_i *= d_scale     j = 0     loop_end = tl.cdiv(n, BK)     if IS_CAUSAL:         loop_end = tl.cdiv((pid_tq + 1) * BQ, BK)     for j in range(loop_end):         k_j = tl.load(k_block_ptr, boundary_check=(0, 1))         v_j = tl.load(v_block_ptr, boundary_check=(0, 1))         s_ij = tl.dot(q_i, k_j)         if IS_CAUSAL:             offs_q = pid_tq * BQ + tl.arange(0, BQ)             offs_k = j * BK + tl.arange(0, BK)             causal_mask = offs_q[:, None] >= offs_k[None, :]             s_ij = tl.where(causal_mask, s_ij, -1e9)         m_new = tl.maximum(m_i, tl.max(s_ij, axis=1))         scale = tl.exp(m_i - m_new)         p_ij = tl.exp(s_ij - m_new[:, None])         l_new = scale * l_i + tl.sum(p_ij, axis=1)         o_i = scale[:, None] * o_i + tl.dot(p_ij.to(v_j.dtype), v_j)         l_i = l_new         m_i = m_new         k_block_ptr = tl.advance(k_block_ptr, (0, BK))         v_block_ptr = tl.advance(v_block_ptr, (BK, 0))     o_i /= l_i[:, None]     l_i = m_i + tl.log(l_i + eps)     tl.store(o_block_ptr, o_i.to(out.dtype.element_ty), boundary_check=(0, 1))     tl.store(l_ptrs, l_i, mask=(pid_tq * BQ + tl.arange(0, BQ)) < n) class FlashAttention(torch.autograd.Function):     @staticmethod     def forward(         ctx,         q: Float[Tensor, ""b n d""],         k: Float[Tensor, ""b n d""],         v: Float[Tensor, ""b n d""],         is_causal=False,         eps=1e-6,     ):         device = q.device         b, n, d = q.shape         scale = 1.0 / math.sqrt(d)         out = torch.empty_like(q)         l = torch.empty((b, n), dtype=torch.float32, device=device)         grid = (b, triton.cdiv(n, 16))         flash_attention_forward_kernel[grid](             q,             k,             v,             out,             l,             q.stride(0),             q.stride(1),             q.stride(2),             k.stride(0),             k.stride(1),            k.stride(2),            v.stride(0),             v.stride(1),             v.stride(2),             out.stride(0),             out.stride(1),             out.stride(2),             l.stride(0),             l.stride(1),             d_scale=scale,             IS_CAUSAL=is_causal,             D=d,             eps=eps,         )         ctx.save_for_backward(q, k, v, l, out)         ctx.is_causal = is_causal         return out### Environment details950上和910B4上性能都特别差，如batch, seq_len, head_dim = 2, 2048, 256时，性能和torch.nn.functional.scaled_dot_product_attention差十倍以上950上用的是CANN9.0Triton ascend 3.2.1",,,,,,,
215,pytest==8.3.2 会和其他依赖triton-ascend的pytest版本冲突，希望能改为pytest>=的配置,[Misc],open,bug,2026-05-25T08:38:29Z,"### Describe the bugsetup.py脚本中pytest==8.3.2，用户的一些仓依赖triton-ascend 的如果pytest大于8.3.2（  如： ""pytest >= 8.4.0"",），会无法安装。说明：如使用pyproject.toml 来做安装，如：https://github.com/XPU-Forces/mojo_opset 时，配置的""pytest >= 8.4.0""和triton-ascend的==8.3.2会不匹配。希望pytest版本能改为>=的方式，如pytest>=8.4.0### Environment detailstriton-ascend所有版本",,,,,,,
163,cast() got an unexpected keyword argument 'overflow_mode',[Misc],open,bug,2026-05-21T13:22:55Z,"### Describe the bug```TypeError: cast() got an unexpected keyword argument 'overflow_mode'at 37:24:    quantized = tl.cast(x.to(tl.float32) / scale + zero_point, tl.int8, overflow_mode=""saturate"")                ^TypeError(""cast() got an unexpected keyword argument 'overflow_mode'"")```### Environment detailsTriton-ascend: 3.2.1NPU: 950PRCANN: 9.0.0",,,,,,,
132,使用triton.language.parallel接口报错,[Misc],open,,2026-05-20T07:19:30Z,"950和910c都是同样问题：950python 3.11.14triton-ascend          3.4.0.dev2026032022-----910cpython 3.11.15triton-ascend 3.2.0+git716351da-----报错如下```Traceback (most recent call last):  File ""/workspace/triton-ascend-kernels/competitions/06_practices/2026/RotaryPositionEmbedding/test_rotary_position_embedding.py"", line 91, in <module>    test_performance_rotary_position_embedding((10, 2, 128, 896), torch.float32, 0, current_device_str())  File ""/workspace/triton-ascend-kernels/competitions/06_practices/2026/RotaryPositionEmbedding/test_rotary_position_embedding.py"", line 59, in test_performance_rotary_position_embedding    if not test_accuracy_rotary_position_embedding(shape, dtype, mode, device, ""npu""):           ^^^^^^^^^^^^^^^^^^^^^^^^^^^^^^^^^^^^^^^^^^^^^^^^^^^^^^^^^^^^^^^^^^^^^^^^^^  File ""/workspace/triton-ascend-kernels/competitions/06_practices/2026/RotaryPositionEmbedding/test_rotary_position_embedding.py"", line 49, in test_accuracy_rotary_position_embedding    y_triton = RotaryPositionEmbedding(x, cos_vals, sin_vals, mode)               ^^^^^^^^^^^^^^^^^^^^^^^^^^^^^^^^^^^^^^^^^^^^^^^^^^^^  File ""/workspace/triton-ascend-kernels/competitions/06_practices/2026/RotaryPositionEmbedding/RotaryPositionEmbedding.py"", line 185, in RotaryPositionEmbedding    rotary_position_embedding[(grid,)](  File ""/usr/local/lib/python3.11/dist-packages/triton/runtime/jit.py"", line 333, in <lambda>    return lambda *args, **kwargs: self.run(grid=grid, warmup=False, *args, **kwargs)                                   ^^^^^^^^^^^^^^^^^^^^^^^^^^^^^^^^^^^^^^^^^^^^^^^^^^  File ""/usr/local/lib/python3.11/dist-packages/triton/runtime/jit.py"", line 622, in run    kernel = self._do_compile(key, signature, device, backend, target, constants, options, configs[0], warmup)             ^^^^^^^^^^^^^^^^^^^^^^^^^^^^^^^^^^^^^^^^^^^^^^^^^^^^^^^^^^^^^^^^^^^^^^^^^^^^^^^^^^^^^^^^^^^^^^^^^  File ""/usr/local/lib/python3.11/dist-packages/triton/runtime/jit.py"", line 786, in _do_compile    kernel = self.compile(src, target=target, options=options.__dict__)             ^^^^^^^^^^^^^^^^^^^^^^^^^^^^^^^^^^^^^^^^^^^^^^^^^^^^^^^^^^  File ""/usr/local/lib/python3.11/dist-packages/triton/compiler/compiler.py"", line 238, in compile    key = get_cache_key(src, backend, options, env_vars=env_vars)          ^^^^^^^^^^^^^^^^^^^^^^^^^^^^^^^^^^^^^^^^^^^^^^^^^^^^^^^  File ""/usr/local/lib/python3.11/dist-packages/triton/compiler/compiler.py"", line 172, in get_cache_key    key = f""{triton_key()}-{src.hash()}-{backend.hash()}-{backend_options.hash()}-{str(sorted(env_vars.items()))}""                            ^^^^^^^^^^  File ""/usr/local/lib/python3.11/dist-packages/triton/compiler/compiler.py"", line 98, in hash    key = f""{self.fn.cache_key}-{self.attrs.hash()}-{sorted_sig}-{sorted_constants}""             ^^^^^^^^^^^^^^^^^  File ""/usr/local/lib/python3.11/dist-packages/triton/runtime/jit.py"", line 719, in cache_key    dependencies_finder.visit(self.parse())  File ""/usr/lib/python3.11/ast.py"", line 418, in visit    return visitor(node)           ^^^^^^^^^^^^^  File ""/usr/lib/python3.11/ast.py"", line 426, in generic_visit    self.visit(item)  File ""/usr/lib/python3.11/ast.py"", line 418, in visit    return visitor(node)           ^^^^^^^^^^^^^  File ""/usr/local/lib/python3.11/dist-packages/triton/runtime/jit.py"", line 151, in visit_FunctionDef    self.generic_visit(node)  File ""/usr/lib/python3.11/ast.py"", line 426, in generic_visit    self.visit(item)  File ""/usr/lib/python3.11/ast.py"", line 418, in visit    return visitor(node)           ^^^^^^^^^^^^^  File ""/usr/local/lib/python3.11/dist-packages/triton/runtime/jit.py"", line 217, in visit_For    self.generic_visit(node)  File ""/usr/lib/python3.11/ast.py"", line 428, in generic_visit    self.visit(value)  File ""/usr/lib/python3.11/ast.py"", line 418, in visit    return visitor(node)           ^^^^^^^^^^^^^  File ""/usr/lib/python3.11/ast.py"", line 428, in generic_visit    self.visit(value)  File ""/usr/lib/python3.11/ast.py"", line 418, in visit    return visitor(node)           ^^^^^^^^^^^^^  File ""/usr/local/lib/python3.11/dist-packages/triton/runtime/jit.py"", line 144, in visit_Attribute    ret = getattr(lhs, node.attr)          ^^^^^^^^^^^^^^^^^^^^^^^AttributeError: module 'triton.language' has no attribute 'parallel'[ERROR] 2026-05-20-15:17:09 (PID:884, Device:0, RankID:-1) ERR99999 UNKNOWN applicaiton exception```",,,,,,,
…
pe = ""VECTOR""} 32 : index  %c32_4 = arith.constant {DataUse, ssbuffer.core_type = ""CUBE""} 32 : index  %c0_i64 = arith.constant {Undefined, ssbuffer.core_type = ""VECTOR""} 0 : i64  %c0_i32 = arith.constant {MixUse, ssbuffer.core_type = ""VECTOR""} 0 : i32  %c8_i32 = arith.constant {ssbuffer.core_type = ""VECTOR""} 8 : i32  %c32_i32 = arith.constant {MixUse, ssbuffer.core_type = ""VECTOR""} 32 : i32  %c32_i32_5 = arith.constant {MixUse, ssbuffer.core_type = ""CUBE""} 32 : i32  %cst_6 = arith.constant {ssbuffer.core_type = ""VECTOR""} 0.000000e+00 : f32  %cst_7 = arith.constant {ssbuffer.core_type = ""CUBE""} 0.000000e+00 : f32  %0 = tensor.empty() {ssbuffer.core_type = ""VECTOR""} : tensor<32x16xf32>  %1 = tensor.empty() {ssbuffer.core_type = ""CUBE""} : tensor<32x16xf32>  %2 = linalg.fill {ssbuffer.core_type = ""VECTOR""} ins(%cst_6 : f32) outs(%0 : tensor<32x16xf32>) -> tensor<32x16xf32>  %3 = tensor.empty() {ssbuffer.core_type = ""VECTOR""} : tensor<32x32xf32>  %4 = tensor.empty() {ssbuffer.core_type = ""CUBE""} : tensor<32x32xf32>  %5 = linalg.fill {ssbuffer.core_type = ""VECTOR""} ins(%cst_6 : f32) outs(%3 : tensor<32x32xf32>) -> tensor<32x32xf32>  %6 = linalg.fill {ssbuffer.core_type = ""CUBE""} ins(%cst_7 : f32) outs(%4 : tensor<32x32xf32>) -> tensor<32x32xf32>  %7 = linalg.fill {ssbuffer.core_type = ""VECTOR""} ins(%cst_2 : f32) outs(%3 : tensor<32x32xf32>) -> tensor<32x32xf32>  %8 = arith.index_cast %arg34 {ssbuffer.core_type = ""VECTOR""} : i32 to index  %9 = arith.index_cast %arg34 {ssbuffer.core_type = ""CUBE""} : i32 to index  %reinterpret_cast = memref.reinterpret_cast %arg6 to offset: [%8], sizes: [1], strides: [1] {ssbuffer.core_type = ""VECTOR""} : memref<?xi64> to memref<1xi64, strided<[1], offset: ?>>  %reinterpret_cast_8 = memref.reinterpret_cast %arg6 to offset: [%9], sizes: [1], strides: [1] {ssbuffer.core_type = ""CUBE""} : memref<?xi64> to memref<1xi64, strided<[1], offset: ?>>  %10 = memref.load %reinterpret_cast[%c0] {ssbuffer.core_type = ""VECTOR""} : memref<1xi64, strided<[1], offset: ?>>  %11 = memref.load %reinterpret_cast_8[%c0_1] {ssbuffer.core_type = ""CUBE""} : memref<1xi64, strided<[1], offset: ?>>  %12 = arith.addi %8, %c1 {ssbuffer.core_type = ""VECTOR""} : index  %13 = arith.addi %9, %c1_0 {ssbuffer.core_type = ""CUBE""} : index  %reinterpret_cast_9 = memref.reinterpret_cast %arg6 to offset: [%12], sizes: [1], strides: [1] {ssbuffer.core_type = ""VECTOR""} : memref<?xi64> to memref<1xi64, strided<[1], offset: ?>>  %reinterpret_cast_10 = memref.reinterpret_cast %arg6 to offset: [%13], sizes: [1], strides: [1] {ssbuffer.core_type = ""CUBE""} : memref<?xi64> to memref<1xi64, strided<[1], offset: ?>>  %14 = memref.load %reinterpret_cast_9[%c0] {ssbuffer.core_type = ""VECTOR""} : memref<1xi64, strided<[1], offset: ?>>  %15 = memref.load %reinterpret_cast_10[%c0_1] {ssbuffer.core_type = ""CUBE""} : memref<1xi64, strided<[1], offset: ?>>  %16 = arith.subi %14, %10 {MixUse, ssbuffer.core_type = ""VECTOR""} : i64  %17 = arith.subi %15, %11 {MixUse, ssbuffer.core_type = ""CUBE""} : i64  %18 = arith.extsi %arg15 {MixUse, ssbuffer.core_type = ""VECTOR""} : i32 to i64  %19 = arith.extsi %arg15 {MixUse, ssbuffer.core_type = ""CUBE""} : i32 to i64  %20 = arith.minsi %16, %18 {MixUse, ssbuffer.core_type = ""VECTOR""} : i64  %21 = arith.minsi %17, %19 {MixUse, ssbuffer.core_type = ""CUBE""} : i64  %22 = arith.cmpi eq, %20, %c0_i64 {Undefined, ssbuffer.core_type = ""VECTOR""} : i64  scf.if %22 {  } else {    %23 = arith.extsi %arg16 {ssbuffer.core_type = ""CUBE""} : i32 to i64    %24 = arith.muli %11, %23 {ssbuffer.core_type = ""CUBE""} : i64    %25 = arith.muli %arg34, %arg17 {ssbuffer.core_type = ""CUBE""} : i32    %26 = arith.muli %arg34, %arg20 {ssbuffer.core_type = ""VECTOR""} : i32    %27 = arith.extsi %arg19 {ssbuffer.core_type = ""CUBE""} : i32 to i64    %28 = arith.muli %11, %27 {ssbuffer.core_type = ""CUBE""} : i64    %29 = arith.muli %arg34, %arg28 {ssbuffer.core_type = ""VECTOR""} : i32    %30 = arith.extsi %arg24 {ssbuffer.core_type = ""VECTOR""} : i32 to i64    %31 = arith.muli %10, %30 {ssbuffer.core_type = ""VECTOR""} : i64    %32 = arith.extsi %arg25 {ssbuffer.core_type = ""VECTOR""} : i32 to i64    %33 = arith.muli %10, %32 {ssbuffer.core_type = ""VECTOR""} : i64    %34 = arith.muli %arg34, %arg26 {ssbuffer.core_type = ""VECTOR""} : i32    %35 = arith.muli %arg34, %c8_i32 {ssbuffer.core_type = ""VECTOR""} : i32    %36 = arith.muli %arg33, %c32_i32 {MixUse, ssbuffer.core_type = ""VECTOR""} : i32    %37 = arith.muli %arg33, %c32_i32_5 {MixUse, ssbuffer.core_type = ""CUBE""} : i32    %38 = arith.index_cast %24 {ssbuffer.core_type = ""CUBE""} : i64 to index    %39 = arith.index_cast %36 {ssbuffer.core_type = ""VECTOR""} : i32 to index    %40 = arith.index_cast %37 {ssbuffer.core_type = ""CUBE""} : i32 to index    %41 = arith.index_cast %arg16 {ssbuffer.core_type = ""CUBE""} : i32 to index    %42 = arith.muli %40, %41 {ssbuffer.core_type = ""CUBE""} : index    %43 = arith.addi %38, %42 {ssbuffer.core_type = ""CUBE""} : index    %reinterpret_cast_11 = memref.reinterpret_cast %arg2 to offset: [%43], sizes: [32, 16], strides: [%41, 1] {ssbuffer.core_type = ""CUBE""} : memref<?xf32> to memref<32x16xf32, strided<[?, 1], offset: ?>>    %44 = arith.index_cast %28 {ssbuffer.core_type = ""CUBE""} : i64 to index    %45 = arith.index_cast %arg19 {ssbuffer.core_type = ""CUBE""} : i32 to index    %46 = arith.muli %40, %45 {ssbuffer.core_type = ""CUBE""} : index    %47 = arith.addi %44, %46 {ssbuffer.core_type = ""CUBE""} : index    %reinterpret_cast_12 = memref.reinterpret_cast %arg4 to offset: [%47], sizes: [32, 16], strides: [%45, 1] {ssbuffer.core_type = ""CUBE""} : memref<?xf32> to memref<32x16xf32, strided<[?, 1], offset: ?>>    %alloc = memref.alloc() {ssbuffer.core_type = ""CUBE""} : memref<32x16xf32>    %48 = arith.addi %39, %c32 {ssbuffer.core_type = ""VECTOR""} : index    %49 = arith.addi %40, %c32_4 {ssbuffer.core_type = ""CUBE""} : index    %50 = arith.index_cast %20 {ssbuffer.core_type = ""VECTOR""} : i64 to index    %51 = arith.index_cast %21 {ssbuffer.core_type = ""CUBE""} : i64 to index    %52 = arith.maxsi %39, %50 {ssbuffer.core_type = ""VECTOR""} : index    %53 = arith.maxsi %40, %51 {ssbuffer.core_type = ""CUBE""} : index    %54 = arith.minsi %48, %52 {ssbuffer.core_type = ""VECTOR""} : index    %55 = arith.minsi %49, %53 {ssbuffer.core_type = ""CUBE""} : index    %56 = arith.subi %54, %39 {ssbuffer.core_type = ""VECTOR""} : index    %57 = arith.subi %55, %40 {ssbuffer.core_type = ""CUBE""} : index    %58 = arith.minsi %56, %c32 {ssbuffer.core_type = ""VECTOR""} : index    %59 = arith.minsi %57, %c32_4 {ssbuffer.core_type = ""CUBE""} : index    %60 = arith.cmpi slt, %58, %c32 {ssbuffer.core_type = ""VECTOR""} : index    %61 = arith.cmpi slt, %59, %c32_4 {ssbuffer.core_type = ""CUBE""} : index    scf.if %61 {      linalg.fill {ssbuffer.core_type = ""CUBE""} ins(%cst_7 : f32) outs(%alloc : memref<32x16xf32>)    } {hivm.unlikely_condition}    %subview = memref.subview %reinterpret_cast_11[0, 0] [%59, 16] [1, 1] {ssbuffer.core_type = ""CUBE""} : memref<32x16xf32, strided<[?, 1], offset: ?>> to memref<?x16xf32, strided<[?, 1], offset: ?>>    %subview_13 = memref.subview %alloc[0, 0] [%59, 16] [1, 1] {ssbuffer.core_type = ""CUBE""} : memref<32x16xf32> to memref<?x16xf32, strided<[16, 1]>>    memref.copy %subview, %subview_13 {ssbuffer.core_type = ""CUBE""} : memref<?x16xf32, strided<[?, 1], offset: ?>> to memref<?x16xf32, strided<[16, 1]>>    %62 = bufferization.to_tensor %alloc restrict writable {ssbuffer.core_type = ""CUBE""} : memref<32x16xf32>    %alloc_14 = memref.alloc() {ssbuffer.core_type = ""CUBE""} : memref<32x16xf32>    %63 = arith.cmpi slt, %57, %c32_4 {ssbuffer.core_type = ""CUBE""} : index    scf.if %63 {      linalg.fill {ssbuffer.core_type = ""CUBE""} ins(%cst_7 : f32) outs(%alloc_14 : memref<32x16xf32>)    } {hivm.unlikely_condition}    %subview_15 = memref.subview %reinterpret_cast_12[0, 0] [%57, 16] [1, 1] {ssbuffer.core_type = ""CUBE""} : memref<32x16xf32, strided<[?, 1], offset: ?>> to memref<?x16xf32, strided<[?, 1], offset: ?>>    %subview_16 = memref.subview %alloc_14[0, 0] [%57, 16] [1, 1] {ssbuffer.core_type = ""CUBE""} : memref<32x16xf32> to memref<?x16xf32, strided<[16, 1]>>    memref.copy %subview_15, %subview_16 {ssbuffer.core_type = ""CUBE""} : memref<?x16xf32, strided<[?, 1], offset: ?>> to memref<?x16xf32, strided<[16, 1]>>    %64 = bufferization.to_tensor %alloc_14 restrict writable {ssbuffer.core_type = ""CUBE""} : memref<32x16xf32>    %65 = tensor.empty() {ssbuffer.core_type = ""CUBE""} : tensor<16x32xf32>    %transposed = linalg.transpose ins(%64 : tensor<32x16xf32>) outs(%65 : tensor<16x32xf32>) permutation = [1, 0]  {ssbuffer.core_type = ""CUBE""}    %66 = arith.muli %arg29, %c32_i32 {ssbuffer.core_type = ""VECTOR""} : i32    %67:5 = scf.while (%arg36 = %2, %arg37 = %2, %arg38 = %c0_i32, %arg39 = %c0, %arg40 = %c0) : (tensor<32x16xf32>, tensor<32x16xf32>, i32, index, index) -> (tensor<32x16xf32>, tensor<32x16xf32>, i32, index, index) {      %76 = arith.cmpi slt, %arg38, %c8_i32 {Undefined, ssbuffer.core_type = ""VECTOR""} : i32      scf.condition(%76) %arg36, %arg37, %arg38, %arg39, %arg40 : tensor<32x16xf32>, tensor<32x16xf32>, i32, index, index    } do {    ^bb0(%arg36: tensor<32x16xf32>, %arg37: tensor<32x16xf32>, %arg38: i32, %arg39: index, %arg40: index):      %76 = arith.index_cast %25 {ssbuffer.core_type = ""CUBE""} : i32 to index      %77 = arith.index_cast %arg18 {ssbuffer.core_type = ""CUBE""} : i32 to index      %78 = arith.addi %76, %arg39 {ssbuffer.core_type = ""CUBE""} : index      %reinterpret_cast_22 = memref.reinterpret_cast %arg3 to offset: [%78], sizes: [16, 32], strides: [%77, %c1_0] {ssbuffer.core_type = ""CUBE""} : memref<?xf32> to memref<16x32xf32, strided<[?, ?], offset: ?>>      %79 = arith.index_cast %29 {ssbuffer.core_type = ""VECTOR""} : i32 to index      %80 = arith.index_cast %arg29 {ssbuffer.core_type = ""VECTOR""} : i32 to index      %81 = arith.addi %79, %arg40 {ssbuffer.core_type = ""VECTOR""} : index      %reinterpret_cast_23 = memref.reinterpret_cast %arg8 to offset: [%81], sizes: [32, 16], strides: [%80, %c1] {ssbuffer.core_type = ""VECTOR""} : memref<?xf32> to memref<32x16xf32, strided<[?, ?], offset: ?>>      %alloc_24 = memref.alloc() {ssbuffer.core_type = ""CUBE""} : memref<16x32xf32>      %82 = arith.index_cast %arg38 {ssbuffer.core_type = ""VECTOR""} : i32 to index      %83 = arith.index_cast %arg38 {ssbuffer.core_type = ""CUBE""} : i32 to index      %84 = arith.addi %82, %c32 {ssbuffer.core_type = ""VECTOR""} : index      %85 = arith.addi %83, %c32_4 {ssbuffer.core_type = ""CUBE""} : index      %86 = arith.maxsi %82, %c8 {ssbuffer.core_type = ""VECTOR""} : index      %87 = arith.maxsi %83, %c8_3 {ssbuffer.core_type = ""CUBE""} : index      %88 = arith.minsi %84, %86 {ssbuffer.core_type = ""VECTOR""} : index      %89 = arith.minsi %85, %87 {ssbuffer.core_type = ""CUBE""} : index      %90 = arith.subi %88, %82 {ssbuffer.core_type = ""VECTOR""} : index      %91 = arith.subi %89, %83 {ssbuffer.core_type = ""CUBE""} : index      %92 = arith.minsi %90, %c32 {ssbuffer.core_type = ""VECTOR""} : index      %93 = arith.minsi %91, %c32_4 {ssbuffer.core_type = ""CUBE""} : index      %94 = arith.cmpi slt, %92, %c32 {ssbuffer.core_type = ""VECTOR""} : index      %95 = arith.cmpi slt, %93, %c32_4 {ssbuffer.core_type = ""CUBE""} : index      scf.if %95 {        linalg.fill {ssbuffer.core_type = ""CUBE""} ins(%cst_7 : f32) outs(%alloc_24 : memref<16x32xf32>)      } {hivm.unlikely_condition}      %subview_25 = memref.subview %reinterpret_cast_22[0, 0] [16, %93] [1, 1] {ssbuffer.core_type = ""CUBE""} : memref<16x32xf32, strided<[?, ?], offset: ?>> to memref<16x?xf32, strided<[?, ?], offset: ?>>      %subview_26 = memref.subview %alloc_24[0, 0] [16, %93] [1, 1] {ssbuffer.core_type = ""CUBE""} : memref<16x32xf32> to memref<16x?xf32, strided<[32, 1]>>      memref.copy %subview_25, %subview_26 {ssbuffer.core_type = ""CUBE""} : memref<16x?xf32, strided<[?, ?], offset: ?>> to memref<16x?xf32, strided<[32, 1]>>      annotation.mark %alloc_24 {MayImplicitTransposeWithLastAxis, ssbuffer.core_type = ""CUBE""} : memref<16x32xf32>      %96 = bufferization.to_tensor %alloc_24 restrict writable {ssbuffer.core_type = ""CUBE""} : memref<16x32xf32>      annotation.mark %96 {MayImplicitTransposeWithLastAxis, ssbuffer.core_type = ""CUBE""} : tensor<16x32xf32>      %97 = arith.index_cast %26 {ssbuffer.core_type = ""VECTOR""} : i32 to index      %98 = arith.index_cast %arg21 {ssbuffer.core_type = ""VECTOR""} : i32 to index      %99 = arith.muli %39, %98 {ssbuffer.core_type = ""VECTOR""} : index      %100 = arith.addi %97, %99 {ssbuffer.core_type = ""VECTOR""} : index      %101 = arith.addi %100, %82 {ssbuffer.core_type = ""VECTOR""} : index      %reinterpret_cast_27 = memref.reinterpret_cast %arg5 to offset: [%101], sizes: [32, 32], strides: [%98, 1] {ssbuffer.core_type = ""VECTOR""} : memref<?xf32> to memref<32x32xf32, strided<[?, 1], offset: ?>>      %alloc_28 = memref.alloc() {ssbuffer.core_type = ""VECTOR""} : memref<32x32xf32>      %102 = arith.ori %60, %94 {ssbuffer.core_type = ""VECTOR""} : i1      scf.if %102 {        linalg.fill {ssbuffer.core_type = ""VECTOR""} ins(%cst_6 : f32) outs(%alloc_28 : memref<32x32xf32>)      } {hivm.unlikely_condition}      %subview_29 = memref.subview %reinterpret_cast_27[0, 0] [%58, %92] [1, 1] {ssbuffer.core_type = ""VECTOR""} : memref<32x32xf32, strided<[?, 1], offset: ?>> to memref<?x?xf32, strided<[?, 1], offset: ?>>      %subview_30 = memref.subview %alloc_28[0, 0] [%58, %92] [1, 1] {ssbuffer.core_type = ""VECTOR""} : memref<32x32xf32> to memref<?x?xf32, strided<[32, 1]>>      memref.copy %subview_29, %subview_30 {ssbuffer.core_type = ""VECTOR""} : memref<?x?xf32, strided<[?, 1], offset: ?>> to memref<?x?xf32, strided<[32, 1]>>      %103 = bufferization.to_tensor %alloc_28 restrict writable {ssbuffer.core_type = ""VECTOR""} : memref<32x32xf32>      %104 = tensor.empty() {ssbuffer.core_type = ""CUBE""} : tensor<32x32xf32>      %105 = linalg.fill {ssbuffer.core_type = ""CUBE""} ins(%cst_7 : f32) outs(%104 : tensor<32x32xf32>) -> tensor<32x32xf32>      %106 = linalg.matmul {input_precision = ""ieee"", ssbuffer.core_type = ""CUBE""} ins(%62, %96 : tensor<32x16xf32>, tensor<16x32xf32>) outs(%105 : tensor<32x32xf32>) -> tensor<32x32xf32>      %107 = arith.addf %106, %103 {ssbuffer.add_from_matmul, ssbuffer.core_type = ""VECTOR""} : tensor<32x32xf32>      %108 = arith.index_cast %36 {DataUse, ssbuffer.core_type = ""VECTOR""} : i32 to index      %109 = arith.addi %108, %c32 {DataUse, ssbuffer.core_type = ""VECTOR""} : index      %110 = arith.index_cast %20 {DataUse, ssbuffer.core_type = ""VECTOR""} : i64 to index      %111 = arith.maxsi %108, %110 {DataUse, ssbuffer.core_type = ""VECTOR""} : index      %112 = arith.minsi %109, %111 {DataUse, ssbuffer.core_type = ""VECTOR""} : index      %113 = arith.subi %112, %108 {DataUse, ssbuffer.core_type = ""VECTOR""} : index      %114 = arith.index_cast %arg38 {DataUse, ssbuffer.core_type = ""VECTOR""} : i32 to index      %115 = arith.addi %114, %c32 {DataUse, ssbuffer.core_type = ""VECTOR""} : index      %116 = arith.maxsi %114, %c8 {DataUse, ssbuffer.core_type = ""VECTOR""} : index      %117 = arith.minsi %115, %116 {DataUse, ssbuffer.core_type = ""VECTOR""} : index      %118 = arith.subi %117, %114 {DataUse, ssbuffer.core_type = ""VECTOR""} : index      %119 = arith.minsi %113, %c32 {DataUse, ssbuffer.core_type = ""VECTOR""} : index      %120 = arith.minsi %118, %c32 {DataUse, ssbuffer.core_type = ""VECTOR""} : index      %extracted_slice_31 = tensor.extract_slice %107[0, 0] [%119, %120] [1, 1] {DataUse, ssbuffer.core_type = ""VECTOR""} : tensor<32x32xf32> to tensor<?x?xf32>      %inserted_slice = tensor.insert_slice %extracted_slice_31 into %7[0, 0] [%119, %120] [1, 1] {DataUse, ssbuffer.core_type = ""VECTOR""} : tensor<?x?xf32> into tensor<32x32xf32>      %121 = arith.index_cast %35 {ssbuffer.core_type = ""VECTOR""} : i32 to index      %122 = arith.addi %121, %82 {ssbuffer.core_type = ""VECTOR""} : index      %reinterpret_cast_32 = memref.reinterpret_cast %arg9 to offset: [%122], sizes: [32], strides: [1] {ssbuffer.core_type = ""VECTOR""} : memref<?xf32> to memref<32xf32, strided<[1], offset: ?>>      %alloc_33 = memref.alloc() {ssbuffer.core_type = ""VECTOR""} : memref<32xf32>      %123 = arith.cmpi slt, %90, %c32 {ssbuffer.core_type = ""VECTOR""} : index      scf.if %123 {        linalg.fill {ssbuffer.core_type = ""VECTOR""} ins(%cst : f32) outs(%alloc_33 : memref<32xf32>)      } {hivm.unlikely_condition}      %subview_34 = memref.subview %reinterpret_cast_32[0] [%90] [1] {ssbuffer.core_type = ""VECTOR""} : memref<32xf32, strided<[1], offset: ?>> to memref<?xf32, strided<[1], offset: ?>>      %subview_35 = memref.subview %alloc_33[0] [%90] [1] {ssbuffer.core_type = ""VECTOR""} : memref<32xf32> to memref<?xf32, strided<[1]>>      memref.copy %subview_34, %subview_35 {ssbuffer.core_type = ""VECTOR""} : memref<?xf32, strided<[1], offset: ?>> to memref<?xf32, strided<[1]>>      %124 = bufferization.to_tensor %alloc_33 restrict writable {ssbuffer.core_type = ""VECTOR""} : memref<32xf32>      %broadcasted = linalg.broadcast ins(%124 : tensor<32xf32>) outs(%3 : tensor<32x32xf32>) dimensions = [0]  {ssbuffer.core_type = ""VECTOR""}      %125 = arith.subf %inserted_slice, %broadcasted {DataUse, ssbuffer.core_type = ""VECTOR""} : tensor<32x32xf32>      %126 = math.exp %125 {DataUse, ssbuffer.core_type = ""VECTOR""} : tensor<32x32xf32>      %extracted_slice_36 = tensor.extract_slice %126[0, 0] [%119, %120] [1, 1] {DataUse, ssbuffer.core_type = ""VECTOR""} : tensor<32x32xf32> to tensor<?x?xf32>      %inserted_slice_37 = tensor.insert_slice %extracted_slice_36 into %5[0, 0] [%119, %120] [1, 1] {DataUse, ssbuffer.core_type = ""VECTOR""} : tensor<?x?xf32> into tensor<32x32xf32>      %alloc_38 = memref.alloc() {ssbuffer.core_type = ""VECTOR""} : memref<32x16xf32>      scf.if %123 {        linalg.fill {ssbuffer.core_type = ""VECTOR""} ins(%cst_6 : f32) outs(%alloc_38 : memref<32x16xf32>)      } {hivm.unlikely_condition}      %subview_39 = memref.subview %reinterpret_cast_23[0, 0] [%90, 16] [1, 1] {ssbuffer.core_type = ""VECTOR""} : memref<32x16xf32, strided<[?, ?], offset: ?>> to memref<?x16xf32, strided<[?, ?], offset: ?>>      %subview_40 = memref.subview %alloc_38[0, 0] [%90, 16] [1, 1] {ssbuffer.core_type = ""VECTOR""} : memref<32x16xf32> to memref<?x16xf32, strided<[16, 1]>>      memref.copy %subview_39, %subview_40 {ssbuffer.core_type = ""VECTOR""} : memref<?x16xf32, strided<[?, ?], offset: ?>> to memref<?x16xf32, strided<[16, 1]>>      annotation.mark %alloc_38 {MayImplicitTransposeWithLastAxis, ssbuffer.core_type = ""VECTOR""} : memref<32x16xf32>      %127 = bufferization.to_tensor %alloc_38 restrict writable {ssbuffer.core_type = ""VECTOR""} : memref<32x16xf32>      annotation.mark %127 {MayImplicitTransposeWithLastAxis, ssbuffer.core_type = ""VECTOR""} : tensor<32x16xf32>      %128 = tensor.empty() {ssbuffer.core_type = ""CUBE""} : tensor<32x16xf32>      %129 = linalg.fill {ssbuffer.core_type = ""CUBE""} ins(%cst_7 : f32) outs(%128 : tensor<32x16xf32>) -> tensor<32x16xf32>      %130 = linalg.matmul {input_precision = ""ieee"", ssbuffer.core_type = ""CUBE""} ins(%inserted_slice_37, %127 : tensor<32x32xf32>, tensor<32x16xf32>) outs(%129 : tensor<32x16xf32>) -> tensor<32x16xf32>      %131 = arith.addf %130, %arg36 {ssbuffer.add_from_matmul, ssbuffer.core_type = ""VECTOR""} : tensor<32x16xf32>      %reinterpret_cast_41 = memref.reinterpret_cast %arg10 to offset: [%122], sizes: [32], strides: [1] {ssbuffer.core_type = ""VECTOR""} : memref<?xf32> to memref<32xf32, strided<[1], offset: ?>>      %alloc_42 = memref.alloc() {ssbuffer.core_type = ""VECTOR""} : memref<32xf32>      scf.if %123 {        linalg.fill {ssbuffer.core_type = ""VECTOR""} ins(%cst_6 : f32) outs(%alloc_42 : memref<32xf32>)      } {hivm.unlikely_condition}      %subview_43 = memref.subview %reinterpret_cast_41[0] [%90] [1] {ssbuffer.core_type = ""VECTOR""} : memref<32xf32, strided<[1], offset: ?>> to memref<?xf32, strided<[1], offset: ?>>      %subview_44 = memref.subview %alloc_42[0] [%90] [1] {ssbuffer.core_type = ""VECTOR""} : memref<32xf32> to memref<?xf32, strided<[1]>>      memref.copy %subview_43, %subview_44 {ssbuffer.core_type = ""VECTOR""} : memref<?xf32, strided<[1], offset: ?>> to memref<?xf32, strided<[1]>>      %132 = bufferization.to_tensor %alloc_42 restrict writable {ssbuffer.core_type = ""VECTOR""} : memref<32xf32>      %133 = linalg.matmul {input_precision = ""ieee"", ssbuffer.core_type = ""CUBE""} ins(%127, %transposed : tensor<32x16xf32>, tensor<16x32xf32>) outs(%6 : tensor<32x32xf32>) -> tensor<32x32xf32>      %transposed_45 = linalg.transpose ins(%133 : tensor<32x32xf32>) outs(%3 : tensor<32x32xf32>) permutation = [1, 0]  {ssbuffer.core_type = ""VECTOR""}      %134 = arith.addf %transposed_45, %5 {DataUse, ssbuffer.core_type = ""VECTOR""} : tensor<32x32xf32>      %broadcasted_46 = linalg.broadcast ins(%132 : tensor<32xf32>) outs(%3 : tensor<32x32xf32>) dimensions = [0]  {ssbuffer.core_type = ""VECTOR""}      %135 = arith.subf %134, %broadcasted_46 {DataUse, ssbuffer.core_type = ""VECTOR""} : tensor<32x32xf32>      %136 = arith.mulf %inserted_slice_37, %135 {DataUse, ssbuffer.core_type = ""VECTOR""} : tensor<32x32xf32>      %137 = arith.index_cast %34 {ssbuffer.core_type = ""VECTOR""} : i32 to index      %138 = arith.index_cast %arg27 {ssbuffer.core_type = ""VECTOR""} : i32 to index      %139 = arith.muli %39, %138 {ssbuffer.core_type = ""VECTOR""} : index      %140 = arith.addi %137, %139 {ssbuffer.core_type = ""VECTOR""} : index      %141 = arith.addi %140, %82 {ssbuffer.core_type = ""VECTOR""} : index      %reinterpret_cast_47 = memref.reinterpret_cast %arg14 to offset: [%141], sizes: [32, 32], strides: [%138, 1] {ssbuffer.core_type = ""VECTOR""} : memref<?xf32> to memref<32x32xf32, strided<[?, 1], offset: ?>>      %extracted_slice_48 = tensor.extract_slice %136[0, 0] [%58, %92] [1, 1] {ssbuffer.core_type = ""VECTOR""} : tensor<32x32xf32> to tensor<?x?xf32>      %subview_49 = memref.subview %reinterpret_cast_47[0, 0] [%58, %92] [1, 1] {ssbuffer.core_type = ""VECTOR""} : memref<32x32xf32, strided<[?, 1], offset: ?>> to memref<?x?xf32, strided<[?, 1], offset: ?>>      bufferization.materialize_in_destination %extracted_slice_48 in writable %subview_49 {ssbuffer.core_type = ""VECTOR""} : (tensor<?x?xf32>, memref<?x?xf32, strided<[?, 1], offset: ?>>) -> ()      %transposed_50 = linalg.transpose ins(%96 : tensor<16x32xf32>) outs(%1 : tensor<32x16xf32>) permutation = [1, 0]  {ssbuffer.core_type = ""CUBE""}      %142 = tensor.empty() {ssbuffer.core_type = ""CUBE""} : tensor<32x16xf32>      %143 = linalg.fill {ssbuffer.core_type = ""CUBE""} ins(%cst_7 : f32) outs(%142 : tensor<32x16xf32>) -> tensor<32x16xf32>      %144 = linalg.matmul {input_precision = ""ieee"", ssbuffer.core_type = ""CUBE""} ins(%136, %transposed_50 : tensor<32x32xf32>, tensor<32x16xf32>) outs(%143 : tensor<32x16xf32>) -> tensor<32x16xf32>      %145 = arith.addf %144, %arg37 {ssbuffer.add_from_matmul, ssbuffer.core_type = ""VECTOR""} : tensor<32x16xf32>      %146 = arith.addi %arg38, %c32_i32 {MixUse, ssbuffer.core_type = ""VECTOR""} : i32      %147 = arith.addi %arg39, %c32 {ssbuffer.core_type = ""VECTOR""} : index      %148 = arith.index_cast %66 {ssbuffer.core_type = ""VECTOR""} : i32 to index      %149 = arith.addi %arg40, %148 {ssbuffer.core_type = ""VECTOR""} : index      scf.yield {ssbuffer.core_type = ""VECTOR, VECTOR, VECTOR, VECTOR, VECTOR""} %131, %145, %146, %147, %149 : tensor<32x16xf32>, tensor<32x16xf32>, i32, index, index    } attributes {ssbuffer.core_type = ""VECTOR, VECTOR, VECTOR, VECTOR, VECTOR""}    %68 = arith.index_cast %31 {ssbuffer.core_type = ""VECTOR""} : i64 to index    %69 = arith.index_cast %arg24 {ssbuffer.core_type = ""VECTOR""} : i32 to index    %70 = arith.muli %39, %69 {ssbuffer.core_type = ""VECTOR""} : index    %71 = arith.addi %68, %70 {ssbuffer.core_type = ""VECTOR""} : index    %reinterpret_cast_17 = memref.reinterpret_cast %arg11 to offset: [%71], sizes: [32, 16], strides: [%69, 1] {ssbuffer.core_type = ""VECTOR""} : memref<?xf32> to memref<32x16xf32, strided<[?, 1], offset: ?>>    %72 = arith.index_cast %33 {ssbuffer.core_type = ""VECTOR""} : i64 to index    %73 = arith.index_cast %arg25 {ssbuffer.core_type = ""VECTOR""} : i32 to index    %74 = arith.muli %39, %73 {ssbuffer.core_type = ""VECTOR""} : index    %75 = arith.addi %72, %74 {ssbuffer.core_type = ""VECTOR""} : index    %reinterpret_cast_18 = memref.reinterpret_cast %arg13 to offset: [%75], sizes: [32, 16], strides: [%73, 1] {ssbuffer.core_type = ""VECTOR""} : memref<?xf32> to memref<32x16xf32, strided<[?, 1], offset: ?>>    %extracted_slice = tensor.extract_slice %67#1[0, 0] [%56, 16] [1, 1] {ssbuffer.core_type = ""VECTOR""} : tensor<32x16xf32> to tensor<?x16xf32>    %subview_19 = memref.subview %reinterpret_cast_17[0, 0] [%56, 16] [1, 1] {ssbuffer.core_type = ""VECTOR""} : memref<32x16xf32, strided<[?, 1], offset: ?>> to memref<?x16xf32, strided<[?, 1], offset: ?>>    bufferization.materialize_in_destination %extracted_slice in writable %subview_19 {ssbuffer.core_type = ""VECTOR""} : (tensor<?x16xf32>, memref<?x16xf32, strided<[?, 1], offset: ?>>) -> ()    %extracted_slice_20 = tensor.extract_slice %67#0[0, 0] [%56, 16] [1, 1] {ssbuffer.core_type = ""VECTOR""} : tensor<32x16xf32> to tensor<?x16xf32>    %subview_21 = memref.subview %reinterpret_cast_18[0, 0] [%56, 16] [1, 1] {ssbuffer.core_type = ""VECTOR""} : memref<32x16xf32, strided<[?, 1], offset: ?>> to memref<?x16xf32, strided<[?, 1], offset: ?>>    bufferization.materialize_in_destination %extracted_slice_20 in writable %subview_21 {ssbuffer.core_type = ""VECTOR""} : (tensor<?x16xf32>, memref<?x16xf32, strided<[?, 1], offset: ?>>) -> ()  } {Undefined}  return}```### Environment details6.8 master ",,,,,,,
463,[Feature] Support SIMD/SIMT mix compile for unstructured memory access,[Feature],solved,enhancement,2026-06-06T07:34:46Z,"## BackgroundTriton-Ascend currently handles most Triton memory accesses through the SIMD-oriented lowering path. For kernels that contain indirect or semi-structured memory access patterns, this path either falls back to scalarized loop expansion or requires the SIMT template path, which limits the ability to use native HFusion gather/scatter operations.We need a compile mode that can keep the normal SIMD pipeline for structured computation while routing unstructured load/store operations to a SIMT-capable or HFusion-native path.## GoalAdd a `compile_mode=""simd_simt""` option that enables mixed SIMD/SIMT compilation for unstructured memory access on 910_95-class targets. In this mode, unstructured `tl.load` / `tl.store` patterns should be recognized, represented explicitly in the IR, and lowered to `hfusion.gather_load` / `hfusion.scatter_store`, using a conservative `burstlen=1` when the burst length cannot be statically determined.## Scope- Introduce compile-mode based routing for `simd`, `simd_simt`, `simt_template`, and existing compatibility modes.- Identify unstructured pointer offsets and discrete-mask memory accesses before Linalg lowering.- Add intermediate `ascend.unstructured_load` / `ascend.unstructured_store` ops to carry base pointer, indices, mask, and unstructured-dim metadata.- Lower intermediate ops to HFusion gather/scatter in `simd_simt` mode, with fallback to SIMT template calls when needed.- Keep `force-simt-template` accepted as a deprecated pass-option alias for existing MLIR pipelines.- Add tests covering indirect load/store, index select/put style semi-structured access, pass option compatibility, and MLIR conversion behavior.## Acceptance Criteria- `compile_mode=""simd_simt""` is rejected on unsupported A2/A3 targets and accepted on 910_95-class targets.- Unstructured load/store ops are produced by `TritonToUnstructure` in mix compile modes.- `TritonToLinalg` lowers static-burst unstructured ops to HFusion gather/scatter in `simd_simt` mode.- Dynamic burst-length cases do not emit invalid constants; they conservatively use `burstlen=1` on the HFusion gather/scatter path.- Existing `simd` behavior remains unchanged.- Existing `force-simt-template` MLIR pass pipelines remain parseable during the transition to `compile-mode`.",,,,,,,
450,CI问题：pre-commit中的部分检测的内容应该在CodeCheck中包含,[Misc],solved,,2026-06-05T06:22:00Z,"https://gitcode.com/Ascend/triton-ascend-kernels/commit/4e71d07b4e8cdc3dd107c2fbe74a2799f2cc43f1?ref=experimental&prId=272本次提交的内容是由于CI的pre-commit失败，手动执行bash -c pip install pre-commit && pre-commit run --all-files命令，并基于命令结果修改的内容修改的内容均为代码格式的调整，而此类问题更合适在codecheck中检测和提示 部分修改内容截图如下：换行修改要求<img width=""439"" height=""184"" alt=""Image"" src=""https://github.com/user-attachments/assets/025259a3-b7a7-4e1e-89ba-40dcb8e53e86"" />符号修改要求<img width=""608"" height=""49"" alt=""Image"" src=""https://github.com/user-attachments/assets/6349926c-68c8-4c6a-be84-f52e332323a3"" />",,,,,,,
439,CI问题：流水线（pre-commit）执行失败，缺少修改指导建议，且修改需要手动执行命令,[Misc],solved,,2026-06-04T12:48:40Z,"流水线（pre-commit）执行失败，缺少修改指导建议，且修改需要手动执行命令，使用不方便https://www.openlibing.com/apps/pipelineDetail?pipelineId=7a2cc17727c7438e92511704c81343ed&pipelineRunId=99f9551422f7435885e9ef7f7f52b231&stepId=758e74115dd04d85a82ecffef6bc5809&stepRunId=272008749c1f4542971ce580f0df9a01&codeHostingPlatformFlag=gitcode&projectId=300077&jobRunId=bfcb98644e1e405e81db5b712a6a1978<img width=""923"" height=""464"" alt=""Image"" src=""https://github.com/user-attachments/assets/0eee13a9-f4b2-49cd-9ff4-35a284a37633"" />",,,,,,,
425,[ssbuffer] nd2nz场景支持不全,[ssbuffer],solved,,2026-06-04T06:49:10Z,a*b+c中a或b如果来自于vector计算且不满足nd2nz的shape要求时，在对a的第二维或b的第一维做padding时需要考虑对matmul计算的影响[matmulbug.txt](https://github.com/user-attachments/files/28584603/matmulbug.txt),,,,,,,
411,triton-opt and bishengir-compile command lines printed with TRITON_DEBUG=1 should be copy-pastable without changes,[Misc],solved,,2026-06-03T11:43:48Z,"If `TRITON_DEBUG=1` is set, we print `triton-opt` and `bishengir-compile` command lines that greatly aid debugging:```TRITON_ALWAYS_COMPILE=1 TRITON_DEBUG=1 TRITON_DUMP_DIR=./dump python3 01-vector-add.py...[DEBUG] cmd list: /home/abokhanko/bisheng/triton-ascend/build/lib.linux-x86_64-cpython-311/triton/_C/triton-opt /tmp/tmpeeekbnge/kernel.ttir.mlir '--pass-pipeline=any(auto-blockify{auto-blockify-size=1},triton-to-structured{enable-mask-fallback-conversion=false optimize-dynamic-offset=false},discrete-mask-access-conversion{compile-on-910-95=false enable-sync-block-lock=false force-simt-template=false},triton-to-annotation,triton-to-unstructure{compile-on-910-95=false force-scalarize-mode=false force-simt-template=false},triton-to-hivm,triton-to-hfusion,triton-to-llvm,bubble-up-operation{enable-aggressive-mode=true},triton-to-structured{enable-mask-fallback-conversion=false optimize-dynamic-offset=false},triton-to-linalg{compile-on-910-95=false enable-nd2nz-on-vector=false enable-select-analysis=true global-kernel=false named-ops=true})' --mlir-print-debuginfo -o /tmp/tmpeeekbnge/kernel.ttadapter.mlir[DEBUG] cmd_list: /home/abokhanko/bisheng/AscendNPU-IR/build/bin/bishengir-compile /tmp/tmpzz5sbupb/kernel.mlir --target=Ascend910B4-1 --enable-auto-multi-buffer=True --enable-auto-bind-sub-block=True --link-aicore-bitcode=/home/abokhanko/bisheng/triton-ascend/build/lib.linux-x86_64-cpython-311/triton/backends/ascend/lib/libdevice.10.bc --enable-hfusion-compile=true --enable-hivm-compile=true --enable-triton-kernel-compile=true --bishengir-print-ir-after=hivm-graph-sync-solver -o /tmp/tmpzz5sbupb/kernel```These lines are not copy-pastable without changes, though, for [at least] two reasons:1) They refer to files in `/tmp/something/` dirs, even when `TRITON_DUMP_DIR` is set.2) Options might include spaces inside (for example, `--append-bisheng-options=-cce-link-aicore-ll-module file.bc` added at https://github.com/triton-lang/triton-ascend/blob/016bec131df8ec738a4e4f705c6a939c4a6e23bc/third_party/ascend/backend/compiler.py#L814).This should be fixed and the printed command lines should be copy-pastable without any changes at all.",,,,,,,
400,【社区任务】dynamicQuant算子开发任务书,[Misc],solved,,2026-06-03T07:11:10Z,[dynamicQuant算子开发任务书.md](https://github.com/user-attachments/files/28540351/dynamicQuant.md),,,,,,,
326,【TTFHW】 quick_start文档中torch-npu版本2.7.1与推荐CANN版本不匹配,[Misc],solved,,2026-05-30T03:34:20Z,https://github.com/triton-lang/triton-ascend/blob/main/docs/zh/quick_start.mdtriton-ascend main分支的quick_start里面的torch-npu版本2.7.1与文档中 推荐的CANN 9.0.0不匹配，详细配套说明里面部分版本匹配关系缺失torch-npu==2.7.1导入时报错undefined symbol: MsprofSysCycleTime| 项目 | 内容 ||------|------|| 缺陷级别 | 中等 || 来源文档 | requirements.txt + quick_start.md || 文档URL | https://github.com/triton-lang/triton-ascend/blob/main/requirements.txt || 现象 | torch-npu==2.7.1导入时报错`undefined symbol: MsprofSysCycleTime` || 根因 | requirements.txt版本与CANN 9.0.0-beta.2驱动API不匹配 || 建议 | 将requirements.txt更新为`torch-npu==2.7.1.post4`，或在quick_start.md说明需使用installation_guide.md版本 |,,,,,,,
6,Tracking of Items for out-of-tree approval,[Misc],solved,,2026-02-22T18:49:07Z,I created this issue so we can discuss any items that may be required for us to follow up on when making Triton-ascend an out-of-tree backend for the Triton compiler.,,,,,,,
321,TRITON_DEBUG and @triton.jit(debug=True) can produce conflicting debug states,[Misc],closed,bug,2026-05-29T10:34:07Z,"### Describe the bug## DescriptionThere is currently a mismatch between the value of the `TRITON_DEBUG` environment variable and the effective compiler debug option.For example:```pythonimport triton@triton.jit(debug=True)def kernel(...):    ...```and```bashexport TRITON_DEBUG=0```result in the following state inside `compiler.py`:```textTRITON_DEBUG=Falseopt.debug=True```This creates an inconsistent debug configuration because some parts of the compilation pipeline may rely on `opt.debug`, while others may directly read `TRITON_DEBUG`.## Expected behaviorThere should be a single source of truth for the debug mode.Possible approaches:1. Treat `opt.debug` as the authoritative value and avoid reading `TRITON_DEBUG` directly in the backend and C++ passes.2. Synchronize `TRITON_DEBUG` and `opt.debug` during compilation.3. At minimum, emit a warning when the two values differ.## Why this mattersThe current behavior can lead to situations where:* kernel compilation runs in debug mode (`opt.debug=True`),* backend passes or utilities behave as if debug mode is disabled (`TRITON_DEBUG=False`),This makes debugging behavior difficult to reason about and may produce inconsistent dumps, logging, or optimization decisions.### Environment detailstriton-ascend: commit 04f6e81c6b04c77a9aa9f953e088fde2398f89d2",,,,,,,
317,"950PR上跑fp8算子coredump，报错Assertion `isa<To>(Val) && ""cast<Ty>() argument of incompatible type!""' failed",[Misc],closed,bug,2026-05-29T07:59:46Z,"### Describe the bug算子代码如下：# Copyright © 2026 Huawei Technologies Co., Ltd.import mathimport torchimport tritonimport triton.language as tlDEVICE = (    ""cuda""    if torch.cuda.is_available()    else ""npu""    if torch.npu.is_available()    else ""cpu"")@triton.jitdef _per_token_group_quant_fp8(    x_ptr,    x_q_ptr,    x_s_ptr,    group_size,    num_groups,    y_num_columns,    y_row_stride,    eps,    fp8_min: tl.constexpr,    fp8_max: tl.constexpr,    use_ue8m0: tl.constexpr,    BLOCK_SIZE: tl.constexpr,    N: tl.constexpr,):    groups_per_row = y_num_columns // group_size    local_pid = tl.program_id(0)    M = tl.num_programs(0)    # ====================== 循环处理多个 group ======================    for iN in range(N):        # 正确计算全局 group ID        g_id = local_pid + iN * M        # 计算属于第几行、第几个group        row = g_id // groups_per_row        row_g_id = g_id % groups_per_row        # ====================== 【关键】每次循环都重新计算指针，不使用 += ======================        x_g_ptr = x_ptr + (row * y_row_stride) + (row_g_id * group_size)        x_q_g_ptr = x_q_ptr + g_id * group_size        x_s_g_ptr = x_s_ptr + g_id        # 加载        cols = tl.arange(0, BLOCK_SIZE)        mask = (cols < group_size) & (g_id < num_groups)        x = tl.load(x_g_ptr + cols, mask=mask, other=0.0)        # 量化计算        _absmax = tl.maximum(tl.max(tl.abs(x)), eps)        scale_raw = _absmax * (1.0 / fp8_max)        x_s = tl.math.exp2(tl.ceil(tl.log2(scale_raw))) if use_ue8m0 else scale_raw        x_q = tl.clamp(x / x_s, fp8_min, fp8_max).to(x_q_ptr.dtype.element_ty)        # 写回（每次都用新指针，不叠加）        tl.store(x_q_g_ptr + cols, x_q, mask=mask)        tl.store(x_s_g_ptr, x_s, mask=g_id < num_groups)@triton.jitdef _per_token_group_quant_fp8_colmajor(    x_ptr,    x_q_ptr,    x_s_ptr,    group_size,    num_groups,    y_num_columns,    y_row_stride,    y_s_col_stride,    eps,    fp8_min: tl.constexpr,    fp8_max: tl.constexpr,    use_ue8m0: tl.constexpr,    BLOCK_SIZE: tl.constexpr,    N: tl.constexpr,):    groups_per_row = y_num_columns // group_size    local_pid = tl.program_id(0)    M = tl.num_programs(0)    for iN in range(N):        g_id = local_pid + iN * M        row = g_id // groups_per_row        row_g_id = g_id % groups_per_row        # ====================== 【关键】每次循环重新计算，不 += ======================        x_g_ptr = x_ptr + row * y_row_stride + row_g_id * group_size        x_q_g_ptr = x_q_ptr + g_id * group_size        blocks_per_row = groups_per_row        scale_col = g_id % blocks_per_row        scale_row = g_id // blocks_per_row        # scale 指针正确计算        scale_offset = scale_col * y_s_col_stride + scale_row        x_s_g_ptr = x_s_ptr + scale_offset        cols = tl.arange(0, BLOCK_SIZE)        mask = (cols < group_size) & (g_id < num_groups)        x = tl.load(x_g_ptr + cols, mask=mask, other=0.0)        _absmax = tl.maximum(tl.max(tl.abs(x)), eps)        scale_raw = _absmax * (1.0 / fp8_max)        x_s = tl.math.exp2(tl.ceil(tl.log2(scale_raw))) if use_ue8m0 else scale_raw        x_q = tl.clamp(x / x_s, fp8_min, fp8_max).to(x_q_ptr.dtype.element_ty)        tl.store(x_q_g_ptr + cols, x_q, mask=mask)        tl.store(x_s_g_ptr, x_s, mask=g_id < num_groups)def triton_per_token_group_quant_fp8(    x: torch.Tensor,    group_size: int,    dtype: torch.dtype,    column_major_scales: bool = False,    block_size=None,    eps: float = 1e-10,    use_ue8m0: bool = False,) -> tuple[torch.Tensor, torch.Tensor]:    assert x.shape[-1] % group_size == 0, (        f""the last dimension of `x` {x.shape[-1]} must be divisible ""        f""by `group_size` {group_size}""    )    assert x.stride(-1) == 1, ""`x` must be contiguous on the last dimension""    x = x.to(DEVICE)    fp8_min = torch.finfo(dtype).min    fp8_max = torch.finfo(dtype).max    # 输出tensor分配    x_q = torch.empty(x.shape, device=x.device, dtype=dtype)    if column_major_scales:        shape = x.shape[:-2] + (x.shape[-1] // group_size, x.shape[-2])        x_s = torch.empty(shape, device=x.device, dtype=x.dtype).permute(-1, -2)    else:        shape = x.shape[:-1] + (x.shape[-1] // group_size,)        x_s = torch.empty(shape, device=x.device, dtype=x.dtype)    num_groups = x.numel() // group_size    # Grid 配置（NPU自动获取VectorCore数量）    if DEVICE == ""cuda"":        block_size = triton.next_power_of_2(group_size)        N = 1        grid = (num_groups,)    else:        block_size = group_size        import triton.runtime.driver as driver        device_idx = torch.npu.current_device()        core_num = driver.active.utils.get_device_properties(device_idx)[            ""num_vectorcore""        ]        grid = (core_num,)        N = (num_groups + core_num - 1) // core_num    # 启动kernel    if column_major_scales:        _per_token_group_quant_fp8_colmajor[grid](            x,            x_q,            x_s,            group_size,            num_groups,            x.shape[1],            x.stride(0),            x_s.stride(1),            eps,            fp8_min,            fp8_max,            use_ue8m0,            block_size,            N,        )    else:        # 【修复】统一使用grid启动，不写死(M,)        _per_token_group_quant_fp8[grid](            x,            x_q,            x_s,            group_size,            num_groups,            x.shape[1],            x.stride(0),            eps,            fp8_min,            fp8_max,            use_ue8m0,            block_size,            N,        )    return x_q, x_s测试代码如下：NUM_TOKENS = [7, 2050]DIMS = [512, 4096, 5120, 13824]GROUP_SIZES = [64, 128, 512]# DTYPES = [torch.float16, torch.float8_e5m2, torch.float8_e4m3fn]DTYPES = [torch.float8_e5m2, torch.float8_e4m3fn]COLUMN_MAJOR_SCALES = [True, False]SEEDS = [123]# 精度标准RTOL = {torch.float32: 1e-3, torch.float16: 1e-1}ATOL = {torch.float32: 1e-4, torch.float16: 1e-1}# 性能测试标准PERFORMANCE_THRESHOLD = 0.9  # 0.9 * AscendCWARMUP = 0ITER = 1def benchmark_perf(num_tokens, ndim, group_size, block_size, dtype, provider):    print(""====DTYPE={}"".format(dtype))    shape = (num_tokens, ndim)    x = torch.rand(shape, dtype=torch.float32).to(dtype).to(DEVICE)    USE_AUTOTUNE = block_size == 0    if provider == ""torch"":        ms = triton.testing.do_bench(            lambda: torch_per_token_group_quant_fp8(x, group_size, dtype)        )    if provider == ""triton"":        if USE_AUTOTUNE:            ms = triton.testing.do_bench(                lambda: triton_per_token_group_quant_fp8(x, group_size, dtype)            )        else:            ms = triton.testing.do_bench(                lambda: triton_per_token_group_quant_fp8(                    x, group_size, dtype, block_size=block_size                )            )    return msconfigs = []for _num, _dim in [[2050, 13824], [500, 5120], [7, 512]]:    for _group_size in GROUP_SIZES:        for _dtype in DTYPES:            configs.append(                triton.testing.Benchmark(                    # argument names to use as an x-axis for the plot                    x_names=[                        ""block_size"",                    ],                    x_vals=[                        32,                        64,                        96,                        128,                        256,                        512,                    ],  # different possible values for `x_name`                    line_arg=""provider"",                    # argument name whose value corresponds to a different line in the plot                    # possible values for `line_arg``                    line_vals=[""torch"", ""triton""],                    # label name for the lines                    line_names=[""torch"", ""triton""],                    # line styles                    styles=[(""green"", ""-""), (""blue"", ""-"")],                    ylabel=""runtime(ms)"",  # label name for the y-axis                    plot_name=f""per_token_group_quant_fp8-{_num}-{_dim}-{_group_size}-{_dtype}"",                    # name for the plot. Used also as a file name for saving the plot.                    args={                        ""num_tokens"": _num,                        ""ndim"": _dim,                        ""dtype"": _dtype,                        ""group_size"": _group_size,                    },                )            )@triton.testing.perf_report(configs)def do_bench_perf(num_tokens, ndim, group_size, block_size, dtype, provider):    return benchmark_perf(num_tokens, ndim, group_size, block_size, dtype, provider)if __name__ == ""__main__"":    # 不输入参数, do_bench跑指定切块的性能    if len(sys.argv) == 1:        do_bench_perf.run(show_plots=True, print_data=True, save_path=""."")### Environment detailstriton3.2.1950PR",,,,,,,
306,[packaging] triton-ascend conflicts with mainline triton over triton/backends/compiler.py namespace,[packaging],closed,,2026-05-29T02:28:00Z,"## Summary`triton-ascend` 3.2.0/3.2.1 and mainline `triton` (3.3+) cannot coexist in the same site-packages. Both pip packages claim ownership of `triton/backends/compiler.py` and `triton/backends/__init__.py`, and the two forks of `compiler.py` have diverged enough that mainline Triton's `triton/backends/amd/compiler.py` fails to import once `triton-ascend` overwrites the file.Symptom — `import triton` raises:```ImportError: cannot import name 'Language' from 'triton.backends.compiler'  (/usr/local/python3.11.14/lib/python3.11/site-packages/triton/backends/compiler.py)  at triton.backends.__init__:_discover_backends  via triton.backends.amd.compiler line 1:    from triton.backends.compiler import BaseBackend, GPUTarget, Language```This is not specific to the AMD backend — `_discover_backends()` iterates all backends, so any `import triton` (Ascend or otherwise) fails.## Why this mattersDownstream NPU integrators frequently need both:- `triton-ascend` for the Triton DSL on Ascend- `vllm` / `vllm-ascend`, which transitively requires `xgrammar`, which in turn `Requires: triton` (mainline)The current packaging makes these requirements mutually incompatible by construction, even though the actual code surfaces don't conflict — only the namespace squat does. The user has to apply a fragile post-install fix (`pip uninstall triton && pip install --force-reinstall --no-deps triton-ascend`) after every environment recreation, which makes container builds and CI scripts brittle.I notice the project README announces a planned Triton 3.5 upgrade for 2026 — that's great, but the packaging conflict is orthogonal to which mainline Triton version you track. Even at Triton 3.5, the two `compiler.py` files will continue to diverge (Huawei-specific symbols like `AttrsDescriptor`, mainline-specific symbols like `Language`/[future]), so the underlying issue persists.## Environment- Ascend A3 NPU (dav-c220), CANN 8.5.0- Container: `quay.io/ascend/verl:verl-8.5.2-a3-ubuntu22.04-py3.11-qwen3-5`- Python 3.11.14- `pip show` reports:  - `triton 3.6.0` (Required-by: xgrammar; xgrammar Required-by: vllm, vllm_ascend)  - `triton-ascend 3.2.0`## Reproduce```bash# In a fresh Python env on NPU hostpip install vllm-ascend            # transitively installs xgrammar → triton 3.6.0pip install triton-ascend           # bundled compiler.py overwrites mainlinepython -c ""import triton; print(triton.__version__)""# -> ImportError: cannot import name 'Language' from 'triton.backends.compiler'```## Root cause (verified)`pip show -f triton-ascend` reports:```triton/backends/__init__.pytriton/backends/compiler.pytriton/backends/ascend/__init__.pytriton/backends/ascend/compiler.py````pip show -f triton` reports:```triton/backends/__init__.pytriton/backends/compiler.pytriton/backends/amd/__init__.pytriton/backends/amd/compiler.pytriton/backends/nvidia/__init__.pytriton/backends/nvidia/compiler.py```The two `compiler.py` files have completely different exported symbols:| File source | Exports `class Language` | Exports `AttrsDescriptor` | Size (bytes) ||---|---|---|---|| Mainline `triton 3.6.0` (verified via `zipfile` read of the PyPI wheel) | ✅ | ❌ | 2,834 || `triton-ascend 3.2.0` (this package's bundled `python/triton/backends/compiler.py`) | ❌ | ✅ | 11,388 |Whichever package is installed later wins the file. If `triton-ascend` is the later install, mainline triton's `amd/compiler.py` and `nvidia/compiler.py` (still on disk, still discovered by `_discover_backends`) try to import `Language` from a file that no longer exports it → ImportError.`triton-ascend`'s pypi metadata (`pip show triton-ascend`) currently reports:```Provides-Dist: <none>Provides: <none>Conflicts: <none>```So pip's resolver treats `triton` and `triton-ascend` as independent packages and happily installs both. There's no signal to pip — or to downstream packages like xgrammar — that triton-ascend is a substitute implementation of triton.## Possible fix directions(Posted for visibility — happy to author whichever direction the team picks, since I have the empirical setup ready.)1. **`Provides-Dist: triton (==3.X.Y)` in `setup.py`** — makes pip treat `triton-ascend` as fulfilling a `triton` requirement, so xgrammar/vllm/etc. don't pull in mainline triton when triton-ascend is already installed. Easy; non-invasive; right answer if triton-ascend's DSL surface is a strict-enough match for downstream Triton API consumers (which it appears to be, given Ascend's existing user base).2. **`Conflicts: triton` (or PEP 508 advisory)** — refuse to install both. Eliminates ambiguous-state failure but forces users to pick at install time.3. **Namespace packaging** — move triton-ascend's contents under `triton_ascend.backends.ascend` and patch into `triton.backends` at runtime via a Triton entry point hook. Higher engineering cost but no file-level overlap; would survive arbitrary future Triton-mainline `compiler.py` changes.4. **Install-guide doc + post-install hook** — keep the current packaging but warn at install time and provide `triton-ascend-fix-install` shell helper that removes mainline triton's `backends/amd`/`backends/nvidia` directories if present. Least intrusive change but pushes responsibility to users.I'd vote for (1) since it requires only a few lines in `setup.py`, but I understand the team may want (3) for the Triton 3.5 upgrade.## Workaround (verified working today)```bashpip uninstall -y tritonpip install --force-reinstall --no-deps triton-ascend```After this, `import triton` works, `triton.__version__ == 3.2.0`, and `triton.backends.backends == {'ascend': ...}`. Verified on the affected container running: `mindspeed.megatron_adaptor` import OK, miles NPU end-to-end at H=64 SEQ=2048 real DSv4-Flash shape OK, full forward+backward+Adam step OK. xgrammar warns that mainline triton is missing, but its inference-grammar path is not exercised in NPU training workloads.## Note on the repo moveI see the project moved from `gitcode.com/Ascend/triton-ascend` to `github.com/triton-lang/triton-ascend` and that gitcode is being archived — I'm filing here at the canonical home. The issue applies to both 3.2.0 and 3.2.1 (just released).Thanks for taking a look.",,,,,,,
